
Trial 0:
  Value: 0.8246
  num_layers: 2
  units_0: 96
  units_1: 32
  activation_0: relu
  activation_1: relu
  dropout_0: 0.1
  dropout_1: 0.1
  batch_norm_0: True
  batch_norm_1: False
  optimizer: adamax
  learning_rate: 0.0005433517533592198

Model: "sequential"
_________________________________________________________________
 Layer (type)                Output Shape              Param #   
=================================================================
 flatten (Flatten)           (None, 784)               0         
                                                                 
 dense (Dense)               (None, 96)                75360     
                                                                 
 batch_normalization (Batch  (None, 96)                384       
 Normalization)                                                  
                                                                 
 dropout (Dropout)           (None, 96)                0         
                                                                 
 dense_1 (Dense)             (None, 32)                3104      
                                                                 
 dropout_1 (Dropout)         (None, 32)                0         
                                                                 
 dense_2 (Dense)             (None, 26)                858       
                                                                 
=================================================================
Total params: 79706 (311.35 KB)
Trainable params: 79514 (310.60 KB)
Non-trainable params: 192 (768.00 Byte)
_________________________________________________________________



Trial 1:
  Value: 0.5013
  num_layers: 2
  units_0: 288
  units_1: 480
  activation_0: sigmoid
  activation_1: tanh
  dropout_0: 0.5
  dropout_1: 0.0
  batch_norm_0: False
  batch_norm_1: True
  optimizer: sgd
  learning_rate: 0.001946758051340456

Model: "sequential_1"
_________________________________________________________________
 Layer (type)                Output Shape              Param #   
=================================================================
 flatten_1 (Flatten)         (None, 784)               0         
                                                                 
 dense_3 (Dense)             (None, 288)               226080    
                                                                 
 dropout_2 (Dropout)         (None, 288)               0         
                                                                 
 dense_4 (Dense)             (None, 480)               138720    
                                                                 
 batch_normalization_1 (Bat  (None, 480)               1920      
 chNormalization)                                                
                                                                 
 dropout_3 (Dropout)         (None, 480)               0         
                                                                 
 dense_5 (Dense)             (None, 26)                12506     
                                                                 
=================================================================
Total params: 379226 (1.45 MB)
Trainable params: 378266 (1.44 MB)
Non-trainable params: 960 (3.75 KB)
_________________________________________________________________



Trial 2:
  Value: 0.7973
  num_layers: 1
  units_0: 448
  activation_0: tanh
  dropout_0: 0.2
  batch_norm_0: False
  optimizer: adamax
  learning_rate: 0.0009803679748889747

Model: "sequential_2"
_________________________________________________________________
 Layer (type)                Output Shape              Param #   
=================================================================
 flatten_2 (Flatten)         (None, 784)               0         
                                                                 
 dense_6 (Dense)             (None, 448)               351680    
                                                                 
 dropout_4 (Dropout)         (None, 448)               0         
                                                                 
 dense_7 (Dense)             (None, 26)                11674     
                                                                 
=================================================================
Total params: 363354 (1.39 MB)
Trainable params: 363354 (1.39 MB)
Non-trainable params: 0 (0.00 Byte)
_________________________________________________________________



Trial 3:
  Value: 0.8504
  num_layers: 2
  units_0: 96
  units_1: 192
  activation_0: tanh
  activation_1: sigmoid
  dropout_0: 0.5
  dropout_1: 0.1
  batch_norm_0: True
  batch_norm_1: True
  optimizer: rmsprop
  learning_rate: 0.0014268663479955646

Model: "sequential_3"
_________________________________________________________________
 Layer (type)                Output Shape              Param #   
=================================================================
 flatten_3 (Flatten)         (None, 784)               0         
                                                                 
 dense_8 (Dense)             (None, 96)                75360     
                                                                 
 batch_normalization_2 (Bat  (None, 96)                384       
 chNormalization)                                                
                                                                 
 dropout_5 (Dropout)         (None, 96)                0         
                                                                 
 dense_9 (Dense)             (None, 192)               18624     
                                                                 
 batch_normalization_3 (Bat  (None, 192)               768       
 chNormalization)                                                
                                                                 
 dropout_6 (Dropout)         (None, 192)               0         
                                                                 
 dense_10 (Dense)            (None, 26)                5018      
                                                                 
=================================================================
Total params: 100154 (391.23 KB)
Trainable params: 99578 (388.98 KB)
Non-trainable params: 576 (2.25 KB)
_________________________________________________________________



Trial 4:
  Value: 0.6718
  num_layers: 1
  units_0: 352
  activation_0: sigmoid
  dropout_0: 0.2
  batch_norm_0: True
  optimizer: sgd
  learning_rate: 0.0020566783273530793

Model: "sequential_4"
_________________________________________________________________
 Layer (type)                Output Shape              Param #   
=================================================================
 flatten_4 (Flatten)         (None, 784)               0         
                                                                 
 dense_11 (Dense)            (None, 352)               276320    
                                                                 
 batch_normalization_4 (Bat  (None, 352)               1408      
 chNormalization)                                                
                                                                 
 dropout_7 (Dropout)         (None, 352)               0         
                                                                 
 dense_12 (Dense)            (None, 26)                9178      
                                                                 
=================================================================
Total params: 286906 (1.09 MB)
Trainable params: 286202 (1.09 MB)
Non-trainable params: 704 (2.75 KB)
_________________________________________________________________



Trial 5:
  Value: 0.6384
  num_layers: 1
  units_0: 352
  activation_0: relu
  dropout_0: 0.2
  batch_norm_0: True
  optimizer: adagrad
  learning_rate: 0.0037860363756901847

Model: "sequential_5"
_________________________________________________________________
 Layer (type)                Output Shape              Param #   
=================================================================
 flatten_5 (Flatten)         (None, 784)               0         
                                                                 
 dense_13 (Dense)            (None, 352)               276320    
                                                                 
 batch_normalization_5 (Bat  (None, 352)               1408      
 chNormalization)                                                
                                                                 
 dropout_8 (Dropout)         (None, 352)               0         
                                                                 
 dense_14 (Dense)            (None, 26)                9178      
                                                                 
=================================================================
Total params: 286906 (1.09 MB)
Trainable params: 286202 (1.09 MB)
Non-trainable params: 704 (2.75 KB)
_________________________________________________________________



Trial 6:
  Value: 0.8663
  num_layers: 2
  units_0: 160
  units_1: 480
  activation_0: relu
  activation_1: relu
  dropout_0: 0.30000000000000004
  dropout_1: 0.30000000000000004
  batch_norm_0: True
  batch_norm_1: False
  optimizer: adamax
  learning_rate: 0.005599926147177046

Model: "sequential_6"
_________________________________________________________________
 Layer (type)                Output Shape              Param #   
=================================================================
 flatten_6 (Flatten)         (None, 784)               0         
                                                                 
 dense_15 (Dense)            (None, 160)               125600    
                                                                 
 batch_normalization_6 (Bat  (None, 160)               640       
 chNormalization)                                                
                                                                 
 dropout_9 (Dropout)         (None, 160)               0         
                                                                 
 dense_16 (Dense)            (None, 480)               77280     
                                                                 
 dropout_10 (Dropout)        (None, 480)               0         
                                                                 
 dense_17 (Dense)            (None, 26)                12506     
                                                                 
=================================================================
Total params: 216026 (843.85 KB)
Trainable params: 215706 (842.60 KB)
Non-trainable params: 320 (1.25 KB)
_________________________________________________________________



Trial 7:
  Value: 0.0410
  num_layers: 4
  units_0: 512
  units_1: 160
  units_2: 320
  units_3: 352
  activation_0: sigmoid
  activation_1: sigmoid
  activation_2: tanh
  activation_3: relu
  dropout_0: 0.0
  dropout_1: 0.4
  dropout_2: 0.0
  dropout_3: 0.30000000000000004
  batch_norm_0: False
  batch_norm_1: False
  batch_norm_2: True
  batch_norm_3: True
  optimizer: ftrl
  learning_rate: 0.0012358532542496436

Model: "sequential_7"
_________________________________________________________________
 Layer (type)                Output Shape              Param #   
=================================================================
 flatten_7 (Flatten)         (None, 784)               0         
                                                                 
 dense_18 (Dense)            (None, 512)               401920    
                                                                 
 dropout_11 (Dropout)        (None, 512)               0         
                                                                 
 dense_19 (Dense)            (None, 160)               82080     
                                                                 
 dropout_12 (Dropout)        (None, 160)               0         
                                                                 
 dense_20 (Dense)            (None, 320)               51520     
                                                                 
 batch_normalization_7 (Bat  (None, 320)               1280      
 chNormalization)                                                
                                                                 
 dropout_13 (Dropout)        (None, 320)               0         
                                                                 
 dense_21 (Dense)            (None, 352)               112992    
                                                                 
 batch_normalization_8 (Bat  (None, 352)               1408      
 chNormalization)                                                
                                                                 
 dropout_14 (Dropout)        (None, 352)               0         
                                                                 
 dense_22 (Dense)            (None, 26)                9178      
                                                                 
=================================================================
Total params: 660378 (2.52 MB)
Trainable params: 659034 (2.51 MB)
Non-trainable params: 1344 (5.25 KB)
_________________________________________________________________



Trial 8:
  Value: 0.0417
  num_layers: 1
  units_0: 512
  activation_0: sigmoid
  dropout_0: 0.1
  batch_norm_0: True
  optimizer: ftrl
  learning_rate: 0.00014883023663209738

Model: "sequential_8"
_________________________________________________________________
 Layer (type)                Output Shape              Param #   
=================================================================
 flatten_8 (Flatten)         (None, 784)               0         
                                                                 
 dense_23 (Dense)            (None, 512)               401920    
                                                                 
 batch_normalization_9 (Bat  (None, 512)               2048      
 chNormalization)                                                
                                                                 
 dropout_15 (Dropout)        (None, 512)               0         
                                                                 
 dense_24 (Dense)            (None, 26)                13338     
                                                                 
=================================================================
Total params: 417306 (1.59 MB)
Trainable params: 416282 (1.59 MB)
Non-trainable params: 1024 (4.00 KB)
_________________________________________________________________



Trial 9:
  Value: 0.0375
  num_layers: 1
  units_0: 224
  activation_0: sigmoid
  dropout_0: 0.5
  batch_norm_0: False
  optimizer: ftrl
  learning_rate: 0.001024468315382975

Model: "sequential_9"
_________________________________________________________________
 Layer (type)                Output Shape              Param #   
=================================================================
 flatten_9 (Flatten)         (None, 784)               0         
                                                                 
 dense_25 (Dense)            (None, 224)               175840    
                                                                 
 dropout_16 (Dropout)        (None, 224)               0         
                                                                 
 dense_26 (Dense)            (None, 26)                5850      
                                                                 
=================================================================
Total params: 181690 (709.73 KB)
Trainable params: 181690 (709.73 KB)
Non-trainable params: 0 (0.00 Byte)
_________________________________________________________________



Trial 10:
  Value: 0.7130
  num_layers: 4
  units_0: 32
  units_1: 480
  units_2: 64
  units_3: 96
  activation_0: relu
  activation_1: relu
  activation_2: relu
  activation_3: tanh
  dropout_0: 0.30000000000000004
  dropout_1: 0.5
  dropout_2: 0.5
  dropout_3: 0.0
  batch_norm_0: True
  batch_norm_1: False
  batch_norm_2: False
  batch_norm_3: False
  optimizer: adam
  learning_rate: 0.00882307579792438

Model: "sequential_10"
_________________________________________________________________
 Layer (type)                Output Shape              Param #   
=================================================================
 flatten_10 (Flatten)        (None, 784)               0         
                                                                 
 dense_27 (Dense)            (None, 32)                25120     
                                                                 
 batch_normalization_10 (Ba  (None, 32)                128       
 tchNormalization)                                               
                                                                 
 dropout_17 (Dropout)        (None, 32)                0         
                                                                 
 dense_28 (Dense)            (None, 480)               15840     
                                                                 
 dropout_18 (Dropout)        (None, 480)               0         
                                                                 
 dense_29 (Dense)            (None, 64)                30784     
                                                                 
 dropout_19 (Dropout)        (None, 64)                0         
                                                                 
 dense_30 (Dense)            (None, 96)                6240      
                                                                 
 dropout_20 (Dropout)        (None, 96)                0         
                                                                 
 dense_31 (Dense)            (None, 26)                2522      
                                                                 
=================================================================
Total params: 80634 (314.98 KB)
Trainable params: 80570 (314.73 KB)
Non-trainable params: 64 (256.00 Byte)
_________________________________________________________________



Trial 11:
  Value: 0.8530
  num_layers: 3
  units_0: 160
  units_1: 288
  units_2: 512
  activation_0: tanh
  activation_1: sigmoid
  activation_2: sigmoid
  dropout_0: 0.4
  dropout_1: 0.2
  dropout_2: 0.2
  batch_norm_0: True
  batch_norm_1: True
  batch_norm_2: False
  optimizer: rmsprop
  learning_rate: 0.007046264963762198

Model: "sequential_11"
_________________________________________________________________
 Layer (type)                Output Shape              Param #   
=================================================================
 flatten_11 (Flatten)        (None, 784)               0         
                                                                 
 dense_32 (Dense)            (None, 160)               125600    
                                                                 
 batch_normalization_11 (Ba  (None, 160)               640       
 tchNormalization)                                               
                                                                 
 dropout_21 (Dropout)        (None, 160)               0         
                                                                 
 dense_33 (Dense)            (None, 288)               46368     
                                                                 
 batch_normalization_12 (Ba  (None, 288)               1152      
 tchNormalization)                                               
                                                                 
 dropout_22 (Dropout)        (None, 288)               0         
                                                                 
 dense_34 (Dense)            (None, 512)               147968    
                                                                 
 dropout_23 (Dropout)        (None, 512)               0         
                                                                 
 dense_35 (Dense)            (None, 26)                13338     
                                                                 
=================================================================
Total params: 335066 (1.28 MB)
Trainable params: 334170 (1.27 MB)
Non-trainable params: 896 (3.50 KB)
_________________________________________________________________



Trial 12:
  Value: 0.8986
  num_layers: 3
  units_0: 192
  units_1: 352
  units_2: 512
  activation_0: tanh
  activation_1: relu
  activation_2: sigmoid
  dropout_0: 0.4
  dropout_1: 0.30000000000000004
  dropout_2: 0.2
  batch_norm_0: True
  batch_norm_1: True
  batch_norm_2: False
  optimizer: rmsprop
  learning_rate: 0.009718560135321052

Model: "sequential_12"
_________________________________________________________________
 Layer (type)                Output Shape              Param #   
=================================================================
 flatten_12 (Flatten)        (None, 784)               0         
                                                                 
 dense_36 (Dense)            (None, 192)               150720    
                                                                 
 batch_normalization_13 (Ba  (None, 192)               768       
 tchNormalization)                                               
                                                                 
 dropout_24 (Dropout)        (None, 192)               0         
                                                                 
 dense_37 (Dense)            (None, 352)               67936     
                                                                 
 batch_normalization_14 (Ba  (None, 352)               1408      
 tchNormalization)                                               
                                                                 
 dropout_25 (Dropout)        (None, 352)               0         
                                                                 
 dense_38 (Dense)            (None, 512)               180736    
                                                                 
 dropout_26 (Dropout)        (None, 512)               0         
                                                                 
 dense_39 (Dense)            (None, 26)                13338     
                                                                 
=================================================================
Total params: 414906 (1.58 MB)
Trainable params: 413818 (1.58 MB)
Non-trainable params: 1088 (4.25 KB)
_________________________________________________________________



Trial 13:
  Value: 0.8683
  num_layers: 3
  units_0: 192
  units_1: 384
  units_2: 512
  activation_0: tanh
  activation_1: relu
  activation_2: sigmoid
  dropout_0: 0.4
  dropout_1: 0.30000000000000004
  dropout_2: 0.30000000000000004
  batch_norm_0: True
  batch_norm_1: False
  batch_norm_2: False
  optimizer: rmsprop
  learning_rate: 0.009054204079654956

Model: "sequential_13"
_________________________________________________________________
 Layer (type)                Output Shape              Param #   
=================================================================
 flatten_13 (Flatten)        (None, 784)               0         
                                                                 
 dense_40 (Dense)            (None, 192)               150720    
                                                                 
 batch_normalization_15 (Ba  (None, 192)               768       
 tchNormalization)                                               
                                                                 
 dropout_27 (Dropout)        (None, 192)               0         
                                                                 
 dense_41 (Dense)            (None, 384)               74112     
                                                                 
 dropout_28 (Dropout)        (None, 384)               0         
                                                                 
 dense_42 (Dense)            (None, 512)               197120    
                                                                 
 dropout_29 (Dropout)        (None, 512)               0         
                                                                 
 dense_43 (Dense)            (None, 26)                13338     
                                                                 
=================================================================
Total params: 436058 (1.66 MB)
Trainable params: 435674 (1.66 MB)
Non-trainable params: 384 (1.50 KB)
_________________________________________________________________



Trial 14:
  Value: 0.8952
  num_layers: 3
  units_0: 224
  units_1: 352
  units_2: 512
  activation_0: tanh
  activation_1: relu
  activation_2: sigmoid
  dropout_0: 0.4
  dropout_1: 0.30000000000000004
  dropout_2: 0.30000000000000004
  batch_norm_0: True
  batch_norm_1: True
  batch_norm_2: False
  optimizer: rmsprop
  learning_rate: 0.009741475676035498

Model: "sequential_14"
_________________________________________________________________
 Layer (type)                Output Shape              Param #   
=================================================================
 flatten_14 (Flatten)        (None, 784)               0         
                                                                 
 dense_44 (Dense)            (None, 224)               175840    
                                                                 
 batch_normalization_16 (Ba  (None, 224)               896       
 tchNormalization)                                               
                                                                 
 dropout_30 (Dropout)        (None, 224)               0         
                                                                 
 dense_45 (Dense)            (None, 352)               79200     
                                                                 
 batch_normalization_17 (Ba  (None, 352)               1408      
 tchNormalization)                                               
                                                                 
 dropout_31 (Dropout)        (None, 352)               0         
                                                                 
 dense_46 (Dense)            (None, 512)               180736    
                                                                 
 dropout_32 (Dropout)        (None, 512)               0         
                                                                 
 dense_47 (Dense)            (None, 26)                13338     
                                                                 
=================================================================
Total params: 451418 (1.72 MB)
Trainable params: 450266 (1.72 MB)
Non-trainable params: 1152 (4.50 KB)
_________________________________________________________________



Trial 15:
  Value: 0.8815
  num_layers: 3
  units_0: 288
  units_1: 352
  units_2: 384
  activation_0: tanh
  activation_1: relu
  activation_2: sigmoid
  dropout_0: 0.4
  dropout_1: 0.4
  dropout_2: 0.2
  batch_norm_0: True
  batch_norm_1: True
  batch_norm_2: False
  optimizer: rmsprop
  learning_rate: 0.0043075200828464255

Model: "sequential_15"
_________________________________________________________________
 Layer (type)                Output Shape              Param #   
=================================================================
 flatten_15 (Flatten)        (None, 784)               0         
                                                                 
 dense_48 (Dense)            (None, 288)               226080    
                                                                 
 batch_normalization_18 (Ba  (None, 288)               1152      
 tchNormalization)                                               
                                                                 
 dropout_33 (Dropout)        (None, 288)               0         
                                                                 
 dense_49 (Dense)            (None, 352)               101728    
                                                                 
 batch_normalization_19 (Ba  (None, 352)               1408      
 tchNormalization)                                               
                                                                 
 dropout_34 (Dropout)        (None, 352)               0         
                                                                 
 dense_50 (Dense)            (None, 384)               135552    
                                                                 
 dropout_35 (Dropout)        (None, 384)               0         
                                                                 
 dense_51 (Dense)            (None, 26)                10010     
                                                                 
=================================================================
Total params: 475930 (1.82 MB)
Trainable params: 474650 (1.81 MB)
Non-trainable params: 1280 (5.00 KB)
_________________________________________________________________



Trial 16:
  Value: 0.6607
  num_layers: 3
  units_0: 256
  units_1: 352
  units_2: 512
  activation_0: tanh
  activation_1: tanh
  activation_2: sigmoid
  dropout_0: 0.4
  dropout_1: 0.2
  dropout_2: 0.30000000000000004
  batch_norm_0: True
  batch_norm_1: True
  batch_norm_2: False
  optimizer: rmsprop
  learning_rate: 0.009665654218312924

Model: "sequential_16"
_________________________________________________________________
 Layer (type)                Output Shape              Param #   
=================================================================
 flatten_16 (Flatten)        (None, 784)               0         
                                                                 
 dense_52 (Dense)            (None, 256)               200960    
                                                                 
 batch_normalization_20 (Ba  (None, 256)               1024      
 tchNormalization)                                               
                                                                 
 dropout_36 (Dropout)        (None, 256)               0         
                                                                 
 dense_53 (Dense)            (None, 352)               90464     
                                                                 
 batch_normalization_21 (Ba  (None, 352)               1408      
 tchNormalization)                                               
                                                                 
 dropout_37 (Dropout)        (None, 352)               0         
                                                                 
 dense_54 (Dense)            (None, 512)               180736    
                                                                 
 dropout_38 (Dropout)        (None, 512)               0         
                                                                 
 dense_55 (Dense)            (None, 26)                13338     
                                                                 
=================================================================
Total params: 487930 (1.86 MB)
Trainable params: 486714 (1.86 MB)
Non-trainable params: 1216 (4.75 KB)
_________________________________________________________________



Trial 17:
  Value: 0.0403
  num_layers: 4
  units_0: 352
  units_1: 256
  units_2: 384
  units_3: 512
  activation_0: tanh
  activation_1: relu
  activation_2: sigmoid
  activation_3: sigmoid
  dropout_0: 0.30000000000000004
  dropout_1: 0.4
  dropout_2: 0.1
  dropout_3: 0.5
  batch_norm_0: True
  batch_norm_1: True
  batch_norm_2: True
  batch_norm_3: False
  optimizer: adagrad
  learning_rate: 0.0035072025444071665

Model: "sequential_17"
_________________________________________________________________
 Layer (type)                Output Shape              Param #   
=================================================================
 flatten_17 (Flatten)        (None, 784)               0         
                                                                 
 dense_56 (Dense)            (None, 352)               276320    
                                                                 
 batch_normalization_22 (Ba  (None, 352)               1408      
 tchNormalization)                                               
                                                                 
 dropout_39 (Dropout)        (None, 352)               0         
                                                                 
 dense_57 (Dense)            (None, 256)               90368     
                                                                 
 batch_normalization_23 (Ba  (None, 256)               1024      
 tchNormalization)                                               
                                                                 
 dropout_40 (Dropout)        (None, 256)               0         
                                                                 
 dense_58 (Dense)            (None, 384)               98688     
                                                                 
 batch_normalization_24 (Ba  (None, 384)               1536      
 tchNormalization)                                               
                                                                 
 dropout_41 (Dropout)        (None, 384)               0         
                                                                 
 dense_59 (Dense)            (None, 512)               197120    
                                                                 
 dropout_42 (Dropout)        (None, 512)               0         
                                                                 
 dense_60 (Dense)            (None, 26)                13338     
                                                                 
=================================================================
Total params: 679802 (2.59 MB)
Trainable params: 677818 (2.59 MB)
Non-trainable params: 1984 (7.75 KB)
_________________________________________________________________



Trial 18:
  Value: 0.8768
  num_layers: 3
  units_0: 128
  units_1: 384
  units_2: 160
  activation_0: tanh
  activation_1: relu
  activation_2: relu
  dropout_0: 0.4
  dropout_1: 0.30000000000000004
  dropout_2: 0.4
  batch_norm_0: False
  batch_norm_1: True
  batch_norm_2: False
  optimizer: adam
  learning_rate: 0.005417475544020697

Model: "sequential_18"
_________________________________________________________________
 Layer (type)                Output Shape              Param #   
=================================================================
 flatten_18 (Flatten)        (None, 784)               0         
                                                                 
 dense_61 (Dense)            (None, 128)               100480    
                                                                 
 dropout_43 (Dropout)        (None, 128)               0         
                                                                 
 dense_62 (Dense)            (None, 384)               49536     
                                                                 
 batch_normalization_25 (Ba  (None, 384)               1536      
 tchNormalization)                                               
                                                                 
 dropout_44 (Dropout)        (None, 384)               0         
                                                                 
 dense_63 (Dense)            (None, 160)               61600     
                                                                 
 dropout_45 (Dropout)        (None, 160)               0         
                                                                 
 dense_64 (Dense)            (None, 26)                4186      
                                                                 
=================================================================
Total params: 217338 (848.98 KB)
Trainable params: 216570 (845.98 KB)
Non-trainable params: 768 (3.00 KB)
_________________________________________________________________



Trial 19:
  Value: 0.6459
  num_layers: 4
  units_0: 32
  units_1: 256
  units_2: 416
  units_3: 32
  activation_0: tanh
  activation_1: relu
  activation_2: tanh
  activation_3: sigmoid
  dropout_0: 0.5
  dropout_1: 0.5
  dropout_2: 0.4
  dropout_3: 0.0
  batch_norm_0: True
  batch_norm_1: True
  batch_norm_2: False
  batch_norm_3: True
  optimizer: rmsprop
  learning_rate: 0.0027965720878281963

Model: "sequential_19"
_________________________________________________________________
 Layer (type)                Output Shape              Param #   
=================================================================
 flatten_19 (Flatten)        (None, 784)               0         
                                                                 
 dense_65 (Dense)            (None, 32)                25120     
                                                                 
 batch_normalization_26 (Ba  (None, 32)                128       
 tchNormalization)                                               
                                                                 
 dropout_46 (Dropout)        (None, 32)                0         
                                                                 
 dense_66 (Dense)            (None, 256)               8448      
                                                                 
 batch_normalization_27 (Ba  (None, 256)               1024      
 tchNormalization)                                               
                                                                 
 dropout_47 (Dropout)        (None, 256)               0         
                                                                 
 dense_67 (Dense)            (None, 416)               106912    
                                                                 
 dropout_48 (Dropout)        (None, 416)               0         
                                                                 
 dense_68 (Dense)            (None, 32)                13344     
                                                                 
 batch_normalization_28 (Ba  (None, 32)                128       
 tchNormalization)                                               
                                                                 
 dropout_49 (Dropout)        (None, 32)                0         
                                                                 
 dense_69 (Dense)            (None, 26)                858       
                                                                 
=================================================================
Total params: 155962 (609.23 KB)
Trainable params: 155322 (606.73 KB)
Non-trainable params: 640 (2.50 KB)
_________________________________________________________________



Trial 20:
  Value: 0.6442
  num_layers: 3
  units_0: 224
  units_1: 416
  units_2: 224
  activation_0: tanh
  activation_1: tanh
  activation_2: sigmoid
  dropout_0: 0.30000000000000004
  dropout_1: 0.2
  dropout_2: 0.1
  batch_norm_0: True
  batch_norm_1: True
  batch_norm_2: True
  optimizer: rmsprop
  learning_rate: 0.0052432509795190185

Model: "sequential_20"
_________________________________________________________________
 Layer (type)                Output Shape              Param #   
=================================================================
 flatten_20 (Flatten)        (None, 784)               0         
                                                                 
 dense_70 (Dense)            (None, 224)               175840    
                                                                 
 batch_normalization_29 (Ba  (None, 224)               896       
 tchNormalization)                                               
                                                                 
 dropout_50 (Dropout)        (None, 224)               0         
                                                                 
 dense_71 (Dense)            (None, 416)               93600     
                                                                 
 batch_normalization_30 (Ba  (None, 416)               1664      
 tchNormalization)                                               
                                                                 
 dropout_51 (Dropout)        (None, 416)               0         
                                                                 
 dense_72 (Dense)            (None, 224)               93408     
                                                                 
 batch_normalization_31 (Ba  (None, 224)               896       
 tchNormalization)                                               
                                                                 
 dropout_52 (Dropout)        (None, 224)               0         
                                                                 
 dense_73 (Dense)            (None, 26)                5850      
                                                                 
=================================================================
Total params: 372154 (1.42 MB)
Trainable params: 370426 (1.41 MB)
Non-trainable params: 1728 (6.75 KB)
_________________________________________________________________



Trial 21:
  Value: 0.8955
  num_layers: 3
  units_0: 288
  units_1: 320
  units_2: 416
  activation_0: tanh
  activation_1: relu
  activation_2: sigmoid
  dropout_0: 0.4
  dropout_1: 0.4
  dropout_2: 0.2
  batch_norm_0: True
  batch_norm_1: True
  batch_norm_2: False
  optimizer: rmsprop
  learning_rate: 0.009856132438547643

Model: "sequential_21"
_________________________________________________________________
 Layer (type)                Output Shape              Param #   
=================================================================
 flatten_21 (Flatten)        (None, 784)               0         
                                                                 
 dense_74 (Dense)            (None, 288)               226080    
                                                                 
 batch_normalization_32 (Ba  (None, 288)               1152      
 tchNormalization)                                               
                                                                 
 dropout_53 (Dropout)        (None, 288)               0         
                                                                 
 dense_75 (Dense)            (None, 320)               92480     
                                                                 
 batch_normalization_33 (Ba  (None, 320)               1280      
 tchNormalization)                                               
                                                                 
 dropout_54 (Dropout)        (None, 320)               0         
                                                                 
 dense_76 (Dense)            (None, 416)               133536    
                                                                 
 dropout_55 (Dropout)        (None, 416)               0         
                                                                 
 dense_77 (Dense)            (None, 26)                10842     
                                                                 
=================================================================
Total params: 465370 (1.78 MB)
Trainable params: 464154 (1.77 MB)
Non-trainable params: 1216 (4.75 KB)
_________________________________________________________________



Trial 22:
  Value: 0.8790
  num_layers: 3
  units_0: 320
  units_1: 320
  units_2: 448
  activation_0: tanh
  activation_1: relu
  activation_2: sigmoid
  dropout_0: 0.4
  dropout_1: 0.4
  dropout_2: 0.2
  batch_norm_0: True
  batch_norm_1: True
  batch_norm_2: False
  optimizer: rmsprop
  learning_rate: 0.009712405434137579

Model: "sequential_22"
_________________________________________________________________
 Layer (type)                Output Shape              Param #   
=================================================================
 flatten_22 (Flatten)        (None, 784)               0         
                                                                 
 dense_78 (Dense)            (None, 320)               251200    
                                                                 
 batch_normalization_34 (Ba  (None, 320)               1280      
 tchNormalization)                                               
                                                                 
 dropout_56 (Dropout)        (None, 320)               0         
                                                                 
 dense_79 (Dense)            (None, 320)               102720    
                                                                 
 batch_normalization_35 (Ba  (None, 320)               1280      
 tchNormalization)                                               
                                                                 
 dropout_57 (Dropout)        (None, 320)               0         
                                                                 
 dense_80 (Dense)            (None, 448)               143808    
                                                                 
 dropout_58 (Dropout)        (None, 448)               0         
                                                                 
 dense_81 (Dense)            (None, 26)                11674     
                                                                 
=================================================================
Total params: 511962 (1.95 MB)
Trainable params: 510682 (1.95 MB)
Non-trainable params: 1280 (5.00 KB)
_________________________________________________________________



Trial 23:
  Value: 0.6428
  num_layers: 3
  units_0: 416
  units_1: 192
  units_2: 448
  activation_0: tanh
  activation_1: relu
  activation_2: sigmoid
  dropout_0: 0.5
  dropout_1: 0.30000000000000004
  dropout_2: 0.30000000000000004
  batch_norm_0: True
  batch_norm_1: True
  batch_norm_2: False
  optimizer: rmsprop
  learning_rate: 0.005993300633347334

Model: "sequential_23"
_________________________________________________________________
 Layer (type)                Output Shape              Param #   
=================================================================
 flatten_23 (Flatten)        (None, 784)               0         
                                                                 
 dense_82 (Dense)            (None, 416)               326560    
                                                                 
 batch_normalization_36 (Ba  (None, 416)               1664      
 tchNormalization)                                               
                                                                 
 dropout_59 (Dropout)        (None, 416)               0         
                                                                 
 dense_83 (Dense)            (None, 192)               80064     
                                                                 
 batch_normalization_37 (Ba  (None, 192)               768       
 tchNormalization)                                               
                                                                 
 dropout_60 (Dropout)        (None, 192)               0         
                                                                 
 dense_84 (Dense)            (None, 448)               86464     
                                                                 
 dropout_61 (Dropout)        (None, 448)               0         
                                                                 
 dense_85 (Dense)            (None, 26)                11674     
                                                                 
=================================================================
Total params: 507194 (1.93 MB)
Trainable params: 505978 (1.93 MB)
Non-trainable params: 1216 (4.75 KB)
_________________________________________________________________



Trial 24:
  Value: 0.8948
  num_layers: 2
  units_0: 224
  units_1: 416
  activation_0: tanh
  activation_1: relu
  dropout_0: 0.30000000000000004
  dropout_1: 0.4
  batch_norm_0: True
  batch_norm_1: True
  optimizer: rmsprop
  learning_rate: 0.006268282891266567

Model: "sequential_24"
_________________________________________________________________
 Layer (type)                Output Shape              Param #   
=================================================================
 flatten_24 (Flatten)        (None, 784)               0         
                                                                 
 dense_86 (Dense)            (None, 224)               175840    
                                                                 
 batch_normalization_38 (Ba  (None, 224)               896       
 tchNormalization)                                               
                                                                 
 dropout_62 (Dropout)        (None, 224)               0         
                                                                 
 dense_87 (Dense)            (None, 416)               93600     
                                                                 
 batch_normalization_39 (Ba  (None, 416)               1664      
 tchNormalization)                                               
                                                                 
 dropout_63 (Dropout)        (None, 416)               0         
                                                                 
 dense_88 (Dense)            (None, 26)                10842     
                                                                 
=================================================================
Total params: 282842 (1.08 MB)
Trainable params: 281562 (1.07 MB)
Non-trainable params: 1280 (5.00 KB)
_________________________________________________________________



Trial 25:
  Value: 0.8884
  num_layers: 4
  units_0: 256
  units_1: 288
  units_2: 512
  units_3: 256
  activation_0: tanh
  activation_1: relu
  activation_2: sigmoid
  activation_3: relu
  dropout_0: 0.4
  dropout_1: 0.30000000000000004
  dropout_2: 0.1
  dropout_3: 0.5
  batch_norm_0: True
  batch_norm_1: True
  batch_norm_2: False
  batch_norm_3: True
  optimizer: rmsprop
  learning_rate: 0.007077363055402811

Model: "sequential_25"
_________________________________________________________________
 Layer (type)                Output Shape              Param #   
=================================================================
 flatten_25 (Flatten)        (None, 784)               0         
                                                                 
 dense_89 (Dense)            (None, 256)               200960    
                                                                 
 batch_normalization_40 (Ba  (None, 256)               1024      
 tchNormalization)                                               
                                                                 
 dropout_64 (Dropout)        (None, 256)               0         
                                                                 
 dense_90 (Dense)            (None, 288)               74016     
                                                                 
 batch_normalization_41 (Ba  (None, 288)               1152      
 tchNormalization)                                               
                                                                 
 dropout_65 (Dropout)        (None, 288)               0         
                                                                 
 dense_91 (Dense)            (None, 512)               147968    
                                                                 
 dropout_66 (Dropout)        (None, 512)               0         
                                                                 
 dense_92 (Dense)            (None, 256)               131328    
                                                                 
 batch_normalization_42 (Ba  (None, 256)               1024      
 tchNormalization)                                               
                                                                 
 dropout_67 (Dropout)        (None, 256)               0         
                                                                 
 dense_93 (Dense)            (None, 26)                6682      
                                                                 
=================================================================
Total params: 564154 (2.15 MB)
Trainable params: 562554 (2.15 MB)
Non-trainable params: 1600 (6.25 KB)
_________________________________________________________________



Trial 26:
  Value: 0.0804
  num_layers: 3
  units_0: 192
  units_1: 416
  units_2: 320
  activation_0: tanh
  activation_1: relu
  activation_2: sigmoid
  dropout_0: 0.4
  dropout_1: 0.5
  dropout_2: 0.2
  batch_norm_0: False
  batch_norm_1: True
  batch_norm_2: False
  optimizer: adagrad
  learning_rate: 0.0034596261022782327

Model: "sequential_26"
_________________________________________________________________
 Layer (type)                Output Shape              Param #   
=================================================================
 flatten_26 (Flatten)        (None, 784)               0         
                                                                 
 dense_94 (Dense)            (None, 192)               150720    
                                                                 
 dropout_68 (Dropout)        (None, 192)               0         
                                                                 
 dense_95 (Dense)            (None, 416)               80288     
                                                                 
 batch_normalization_43 (Ba  (None, 416)               1664      
 tchNormalization)                                               
                                                                 
 dropout_69 (Dropout)        (None, 416)               0         
                                                                 
 dense_96 (Dense)            (None, 320)               133440    
                                                                 
 dropout_70 (Dropout)        (None, 320)               0         
                                                                 
 dense_97 (Dense)            (None, 26)                8346      
                                                                 
=================================================================
Total params: 374458 (1.43 MB)
Trainable params: 373626 (1.43 MB)
Non-trainable params: 832 (3.25 KB)
_________________________________________________________________



Trial 27:
  Value: 0.5907
  num_layers: 2
  units_0: 416
  units_1: 320
  activation_0: tanh
  activation_1: sigmoid
  dropout_0: 0.30000000000000004
  dropout_1: 0.2
  batch_norm_0: True
  batch_norm_1: True
  optimizer: adam
  learning_rate: 0.009466115408550033

Model: "sequential_27"
_________________________________________________________________
 Layer (type)                Output Shape              Param #   
=================================================================
 flatten_27 (Flatten)        (None, 784)               0         
                                                                 
 dense_98 (Dense)            (None, 416)               326560    
                                                                 
 batch_normalization_44 (Ba  (None, 416)               1664      
 tchNormalization)                                               
                                                                 
 dropout_71 (Dropout)        (None, 416)               0         
                                                                 
 dense_99 (Dense)            (None, 320)               133440    
                                                                 
 batch_normalization_45 (Ba  (None, 320)               1280      
 tchNormalization)                                               
                                                                 
 dropout_72 (Dropout)        (None, 320)               0         
                                                                 
 dense_100 (Dense)           (None, 26)                8346      
                                                                 
=================================================================
Total params: 471290 (1.80 MB)
Trainable params: 469818 (1.79 MB)
Non-trainable params: 1472 (5.75 KB)
_________________________________________________________________



Trial 28:
  Value: 0.4606
  num_layers: 3
  units_0: 320
  units_1: 224
  units_2: 448
  activation_0: relu
  activation_1: tanh
  activation_2: relu
  dropout_0: 0.5
  dropout_1: 0.4
  dropout_2: 0.4
  batch_norm_0: True
  batch_norm_1: True
  batch_norm_2: False
  optimizer: sgd
  learning_rate: 0.004855976728297997

Model: "sequential_28"
_________________________________________________________________
 Layer (type)                Output Shape              Param #   
=================================================================
 flatten_28 (Flatten)        (None, 784)               0         
                                                                 
 dense_101 (Dense)           (None, 320)               251200    
                                                                 
 batch_normalization_46 (Ba  (None, 320)               1280      
 tchNormalization)                                               
                                                                 
 dropout_73 (Dropout)        (None, 320)               0         
                                                                 
 dense_102 (Dense)           (None, 224)               71904     
                                                                 
 batch_normalization_47 (Ba  (None, 224)               896       
 tchNormalization)                                               
                                                                 
 dropout_74 (Dropout)        (None, 224)               0         
                                                                 
 dense_103 (Dense)           (None, 448)               100800    
                                                                 
 dropout_75 (Dropout)        (None, 448)               0         
                                                                 
 dense_104 (Dense)           (None, 26)                11674     
                                                                 
=================================================================
Total params: 437754 (1.67 MB)
Trainable params: 436666 (1.67 MB)
Non-trainable params: 1088 (4.25 KB)
_________________________________________________________________



Trial 29:
  Value: 0.7715
  num_layers: 4
  units_0: 96
  units_1: 96
  units_2: 352
  units_3: 512
  activation_0: tanh
  activation_1: relu
  activation_2: tanh
  activation_3: tanh
  dropout_0: 0.1
  dropout_1: 0.30000000000000004
  dropout_2: 0.30000000000000004
  dropout_3: 0.2
  batch_norm_0: True
  batch_norm_1: True
  batch_norm_2: True
  batch_norm_3: False
  optimizer: adamax
  learning_rate: 0.00272836095687241

Model: "sequential_29"
_________________________________________________________________
 Layer (type)                Output Shape              Param #   
=================================================================
 flatten_29 (Flatten)        (None, 784)               0         
                                                                 
 dense_105 (Dense)           (None, 96)                75360     
                                                                 
 batch_normalization_48 (Ba  (None, 96)                384       
 tchNormalization)                                               
                                                                 
 dropout_76 (Dropout)        (None, 96)                0         
                                                                 
 dense_106 (Dense)           (None, 96)                9312      
                                                                 
 batch_normalization_49 (Ba  (None, 96)                384       
 tchNormalization)                                               
                                                                 
 dropout_77 (Dropout)        (None, 96)                0         
                                                                 
 dense_107 (Dense)           (None, 352)               34144     
                                                                 
 batch_normalization_50 (Ba  (None, 352)               1408      
 tchNormalization)                                               
                                                                 
 dropout_78 (Dropout)        (None, 352)               0         
                                                                 
 dense_108 (Dense)           (None, 512)               180736    
                                                                 
 dropout_79 (Dropout)        (None, 512)               0         
                                                                 
 dense_109 (Dense)           (None, 26)                13338     
                                                                 
=================================================================
Total params: 315066 (1.20 MB)
Trainable params: 313978 (1.20 MB)
Non-trainable params: 1088 (4.25 KB)
_________________________________________________________________



Trial 30:
  Value: 0.8849
  num_layers: 3
  units_0: 160
  units_1: 320
  units_2: 448
  activation_0: relu
  activation_1: relu
  activation_2: sigmoid
  dropout_0: 0.0
  dropout_1: 0.1
  dropout_2: 0.1
  batch_norm_0: True
  batch_norm_1: True
  batch_norm_2: False
  optimizer: rmsprop
  learning_rate: 0.0070262562847919685

Model: "sequential_30"
_________________________________________________________________
 Layer (type)                Output Shape              Param #   
=================================================================
 flatten_30 (Flatten)        (None, 784)               0         
                                                                 
 dense_110 (Dense)           (None, 160)               125600    
                                                                 
 batch_normalization_51 (Ba  (None, 160)               640       
 tchNormalization)                                               
                                                                 
 dropout_80 (Dropout)        (None, 160)               0         
                                                                 
 dense_111 (Dense)           (None, 320)               51520     
                                                                 
 batch_normalization_52 (Ba  (None, 320)               1280      
 tchNormalization)                                               
                                                                 
 dropout_81 (Dropout)        (None, 320)               0         
                                                                 
 dense_112 (Dense)           (None, 448)               143808    
                                                                 
 dropout_82 (Dropout)        (None, 448)               0         
                                                                 
 dense_113 (Dense)           (None, 26)                11674     
                                                                 
=================================================================
Total params: 334522 (1.28 MB)
Trainable params: 333562 (1.27 MB)
Non-trainable params: 960 (3.75 KB)
_________________________________________________________________



Trial 31:
  Value: 0.8997
  num_layers: 2
  units_0: 224
  units_1: 416
  activation_0: tanh
  activation_1: relu
  dropout_0: 0.30000000000000004
  dropout_1: 0.4
  batch_norm_0: True
  batch_norm_1: True
  optimizer: rmsprop
  learning_rate: 0.006793013051171431

Model: "sequential_31"
_________________________________________________________________
 Layer (type)                Output Shape              Param #   
=================================================================
 flatten_31 (Flatten)        (None, 784)               0         
                                                                 
 dense_114 (Dense)           (None, 224)               175840    
                                                                 
 batch_normalization_53 (Ba  (None, 224)               896       
 tchNormalization)                                               
                                                                 
 dropout_83 (Dropout)        (None, 224)               0         
                                                                 
 dense_115 (Dense)           (None, 416)               93600     
                                                                 
 batch_normalization_54 (Ba  (None, 416)               1664      
 tchNormalization)                                               
                                                                 
 dropout_84 (Dropout)        (None, 416)               0         
                                                                 
 dense_116 (Dense)           (None, 26)                10842     
                                                                 
=================================================================
Total params: 282842 (1.08 MB)
Trainable params: 281562 (1.07 MB)
Non-trainable params: 1280 (5.00 KB)
_________________________________________________________________



Trial 32:
  Value: 0.8886
  num_layers: 2
  units_0: 256
  units_1: 448
  activation_0: tanh
  activation_1: relu
  dropout_0: 0.30000000000000004
  dropout_1: 0.4
  batch_norm_0: True
  batch_norm_1: True
  optimizer: rmsprop
  learning_rate: 0.007446330081082557

Model: "sequential_32"
_________________________________________________________________
 Layer (type)                Output Shape              Param #   
=================================================================
 flatten_32 (Flatten)        (None, 784)               0         
                                                                 
 dense_117 (Dense)           (None, 256)               200960    
                                                                 
 batch_normalization_55 (Ba  (None, 256)               1024      
 tchNormalization)                                               
                                                                 
 dropout_85 (Dropout)        (None, 256)               0         
                                                                 
 dense_118 (Dense)           (None, 448)               115136    
                                                                 
 batch_normalization_56 (Ba  (None, 448)               1792      
 tchNormalization)                                               
                                                                 
 dropout_86 (Dropout)        (None, 448)               0         
                                                                 
 dense_119 (Dense)           (None, 26)                11674     
                                                                 
=================================================================
Total params: 330586 (1.26 MB)
Trainable params: 329178 (1.26 MB)
Non-trainable params: 1408 (5.50 KB)
_________________________________________________________________



Trial 33:
  Value: 0.8896
  num_layers: 2
  units_0: 192
  units_1: 352
  activation_0: tanh
  activation_1: relu
  dropout_0: 0.4
  dropout_1: 0.5
  batch_norm_0: True
  batch_norm_1: True
  optimizer: rmsprop
  learning_rate: 0.009926572895099541

Model: "sequential_33"
_________________________________________________________________
 Layer (type)                Output Shape              Param #   
=================================================================
 flatten_33 (Flatten)        (None, 784)               0         
                                                                 
 dense_120 (Dense)           (None, 192)               150720    
                                                                 
 batch_normalization_57 (Ba  (None, 192)               768       
 tchNormalization)                                               
                                                                 
 dropout_87 (Dropout)        (None, 192)               0         
                                                                 
 dense_121 (Dense)           (None, 352)               67936     
                                                                 
 batch_normalization_58 (Ba  (None, 352)               1408      
 tchNormalization)                                               
                                                                 
 dropout_88 (Dropout)        (None, 352)               0         
                                                                 
 dense_122 (Dense)           (None, 26)                9178      
                                                                 
=================================================================
Total params: 230010 (898.48 KB)
Trainable params: 228922 (894.23 KB)
Non-trainable params: 1088 (4.25 KB)
_________________________________________________________________



Trial 34:
  Value: 0.8993
  num_layers: 2
  units_0: 288
  units_1: 384
  activation_0: tanh
  activation_1: relu
  dropout_0: 0.2
  dropout_1: 0.30000000000000004
  batch_norm_0: False
  batch_norm_1: True
  optimizer: rmsprop
  learning_rate: 0.004808890743514455

Model: "sequential_34"
_________________________________________________________________
 Layer (type)                Output Shape              Param #   
=================================================================
 flatten_34 (Flatten)        (None, 784)               0         
                                                                 
 dense_123 (Dense)           (None, 288)               226080    
                                                                 
 dropout_89 (Dropout)        (None, 288)               0         
                                                                 
 dense_124 (Dense)           (None, 384)               110976    
                                                                 
 batch_normalization_59 (Ba  (None, 384)               1536      
 tchNormalization)                                               
                                                                 
 dropout_90 (Dropout)        (None, 384)               0         
                                                                 
 dense_125 (Dense)           (None, 26)                10010     
                                                                 
=================================================================
Total params: 348602 (1.33 MB)
Trainable params: 347834 (1.33 MB)
Non-trainable params: 768 (3.00 KB)
_________________________________________________________________



Trial 35:
  Value: 0.8030
  num_layers: 2
  units_0: 320
  units_1: 512
  activation_0: tanh
  activation_1: relu
  dropout_0: 0.2
  dropout_1: 0.4
  batch_norm_0: False
  batch_norm_1: False
  optimizer: adamax
  learning_rate: 0.004372437285383726

Model: "sequential_35"
_________________________________________________________________
 Layer (type)                Output Shape              Param #   
=================================================================
 flatten_35 (Flatten)        (None, 784)               0         
                                                                 
 dense_126 (Dense)           (None, 320)               251200    
                                                                 
 dropout_91 (Dropout)        (None, 320)               0         
                                                                 
 dense_127 (Dense)           (None, 512)               164352    
                                                                 
 dropout_92 (Dropout)        (None, 512)               0         
                                                                 
 dense_128 (Dense)           (None, 26)                13338     
                                                                 
=================================================================
Total params: 428890 (1.64 MB)
Trainable params: 428890 (1.64 MB)
Non-trainable params: 0 (0.00 Byte)
_________________________________________________________________



Trial 36:
  Value: 0.3838
  num_layers: 2
  units_0: 288
  units_1: 384
  activation_0: sigmoid
  activation_1: relu
  dropout_0: 0.2
  dropout_1: 0.30000000000000004
  batch_norm_0: False
  batch_norm_1: True
  optimizer: sgd
  learning_rate: 0.006743031693837703

Model: "sequential_36"
_________________________________________________________________
 Layer (type)                Output Shape              Param #   
=================================================================
 flatten_36 (Flatten)        (None, 784)               0         
                                                                 
 dense_129 (Dense)           (None, 288)               226080    
                                                                 
 dropout_93 (Dropout)        (None, 288)               0         
                                                                 
 dense_130 (Dense)           (None, 384)               110976    
                                                                 
 batch_normalization_60 (Ba  (None, 384)               1536      
 tchNormalization)                                               
                                                                 
 dropout_94 (Dropout)        (None, 384)               0         
                                                                 
 dense_131 (Dense)           (None, 26)                10010     
                                                                 
=================================================================
Total params: 348602 (1.33 MB)
Trainable params: 347834 (1.33 MB)
Non-trainable params: 768 (3.00 KB)
_________________________________________________________________



Trial 37:
  Value: 0.6603
  num_layers: 2
  units_0: 384
  units_1: 416
  activation_0: tanh
  activation_1: tanh
  dropout_0: 0.2
  dropout_1: 0.0
  batch_norm_0: False
  batch_norm_1: True
  optimizer: rmsprop
  learning_rate: 0.0018999082288046116

Model: "sequential_37"
_________________________________________________________________
 Layer (type)                Output Shape              Param #   
=================================================================
 flatten_37 (Flatten)        (None, 784)               0         
                                                                 
 dense_132 (Dense)           (None, 384)               301440    
                                                                 
 dropout_95 (Dropout)        (None, 384)               0         
                                                                 
 dense_133 (Dense)           (None, 416)               160160    
                                                                 
 batch_normalization_61 (Ba  (None, 416)               1664      
 tchNormalization)                                               
                                                                 
 dropout_96 (Dropout)        (None, 416)               0         
                                                                 
 dense_134 (Dense)           (None, 26)                10842     
                                                                 
=================================================================
Total params: 474106 (1.81 MB)
Trainable params: 473274 (1.81 MB)
Non-trainable params: 832 (3.25 KB)
_________________________________________________________________



Trial 38:
  Value: 0.4011
  num_layers: 1
  units_0: 288
  activation_0: tanh
  dropout_0: 0.2
  batch_norm_0: False
  optimizer: sgd
  learning_rate: 0.004701954290119465

Model: "sequential_38"
_________________________________________________________________
 Layer (type)                Output Shape              Param #   
=================================================================
 flatten_38 (Flatten)        (None, 784)               0         
                                                                 
 dense_135 (Dense)           (None, 288)               226080    
                                                                 
 dropout_97 (Dropout)        (None, 288)               0         
                                                                 
 dense_136 (Dense)           (None, 26)                7514      
                                                                 
=================================================================
Total params: 233594 (912.48 KB)
Trainable params: 233594 (912.48 KB)
Non-trainable params: 0 (0.00 Byte)
_________________________________________________________________



Trial 39:
  Value: 0.0522
  num_layers: 2
  units_0: 128
  units_1: 448
  activation_0: sigmoid
  activation_1: sigmoid
  dropout_0: 0.1
  dropout_1: 0.2
  batch_norm_0: False
  batch_norm_1: True
  optimizer: adagrad
  learning_rate: 0.0055451711968614635

Model: "sequential_39"
_________________________________________________________________
 Layer (type)                Output Shape              Param #   
=================================================================
 flatten_39 (Flatten)        (None, 784)               0         
                                                                 
 dense_137 (Dense)           (None, 128)               100480    
                                                                 
 dropout_98 (Dropout)        (None, 128)               0         
                                                                 
 dense_138 (Dense)           (None, 448)               57792     
                                                                 
 batch_normalization_62 (Ba  (None, 448)               1792      
 tchNormalization)                                               
                                                                 
 dropout_99 (Dropout)        (None, 448)               0         
                                                                 
 dense_139 (Dense)           (None, 26)                11674     
                                                                 
=================================================================
Total params: 171738 (670.85 KB)
Trainable params: 170842 (667.35 KB)
Non-trainable params: 896 (3.50 KB)
_________________________________________________________________



Trial 40:
  Value: 0.0373
  num_layers: 2
  units_0: 320
  units_1: 32
  activation_0: relu
  activation_1: relu
  dropout_0: 0.30000000000000004
  dropout_1: 0.4
  batch_norm_0: False
  batch_norm_1: False
  optimizer: ftrl
  learning_rate: 0.0037890053588579744

Model: "sequential_40"
_________________________________________________________________
 Layer (type)                Output Shape              Param #   
=================================================================
 flatten_40 (Flatten)        (None, 784)               0         
                                                                 
 dense_140 (Dense)           (None, 320)               251200    
                                                                 
 dropout_100 (Dropout)       (None, 320)               0         
                                                                 
 dense_141 (Dense)           (None, 32)                10272     
                                                                 
 dropout_101 (Dropout)       (None, 32)                0         
                                                                 
 dense_142 (Dense)           (None, 26)                858       
                                                                 
=================================================================
Total params: 262330 (1.00 MB)
Trainable params: 262330 (1.00 MB)
Non-trainable params: 0 (0.00 Byte)
_________________________________________________________________



Trial 41:
  Value: 0.7457
  num_layers: 3
  units_0: 224
  units_1: 352
  units_2: 256
  activation_0: tanh
  activation_1: relu
  activation_2: sigmoid
  dropout_0: 0.5
  dropout_1: 0.30000000000000004
  dropout_2: 0.2
  batch_norm_0: True
  batch_norm_1: True
  batch_norm_2: False
  optimizer: rmsprop
  learning_rate: 0.008160628730879409

Model: "sequential_41"
_________________________________________________________________
 Layer (type)                Output Shape              Param #   
=================================================================
 flatten_41 (Flatten)        (None, 784)               0         
                                                                 
 dense_143 (Dense)           (None, 224)               175840    
                                                                 
 batch_normalization_63 (Ba  (None, 224)               896       
 tchNormalization)                                               
                                                                 
 dropout_102 (Dropout)       (None, 224)               0         
                                                                 
 dense_144 (Dense)           (None, 352)               79200     
                                                                 
 batch_normalization_64 (Ba  (None, 352)               1408      
 tchNormalization)                                               
                                                                 
 dropout_103 (Dropout)       (None, 352)               0         
                                                                 
 dense_145 (Dense)           (None, 256)               90368     
                                                                 
 dropout_104 (Dropout)       (None, 256)               0         
                                                                 
 dense_146 (Dense)           (None, 26)                6682      
                                                                 
=================================================================
Total params: 354394 (1.35 MB)
Trainable params: 353242 (1.35 MB)
Non-trainable params: 1152 (4.50 KB)
_________________________________________________________________



Trial 42:
  Value: 0.7953
  num_layers: 3
  units_0: 256
  units_1: 320
  units_2: 480
  activation_0: tanh
  activation_1: relu
  activation_2: sigmoid
  dropout_0: 0.30000000000000004
  dropout_1: 0.30000000000000004
  dropout_2: 0.0
  batch_norm_0: True
  batch_norm_1: True
  batch_norm_2: False
  optimizer: rmsprop
  learning_rate: 0.0075145210290853155

Model: "sequential_42"
_________________________________________________________________
 Layer (type)                Output Shape              Param #   
=================================================================
 flatten_42 (Flatten)        (None, 784)               0         
                                                                 
 dense_147 (Dense)           (None, 256)               200960    
                                                                 
 batch_normalization_65 (Ba  (None, 256)               1024      
 tchNormalization)                                               
                                                                 
 dropout_105 (Dropout)       (None, 256)               0         
                                                                 
 dense_148 (Dense)           (None, 320)               82240     
                                                                 
 batch_normalization_66 (Ba  (None, 320)               1280      
 tchNormalization)                                               
                                                                 
 dropout_106 (Dropout)       (None, 320)               0         
                                                                 
 dense_149 (Dense)           (None, 480)               154080    
                                                                 
 dropout_107 (Dropout)       (None, 480)               0         
                                                                 
 dense_150 (Dense)           (None, 26)                12506     
                                                                 
=================================================================
Total params: 452090 (1.72 MB)
Trainable params: 450938 (1.72 MB)
Non-trainable params: 1152 (4.50 KB)
_________________________________________________________________



Trial 43:
  Value: 0.8868
  num_layers: 2
  units_0: 192
  units_1: 384
  activation_0: tanh
  activation_1: relu
  dropout_0: 0.4
  dropout_1: 0.30000000000000004
  batch_norm_0: True
  batch_norm_1: True
  optimizer: rmsprop
  learning_rate: 0.006059786874886311

Model: "sequential_43"
_________________________________________________________________
 Layer (type)                Output Shape              Param #   
=================================================================
 flatten_43 (Flatten)        (None, 784)               0         
                                                                 
 dense_151 (Dense)           (None, 192)               150720    
                                                                 
 batch_normalization_67 (Ba  (None, 192)               768       
 tchNormalization)                                               
                                                                 
 dropout_108 (Dropout)       (None, 192)               0         
                                                                 
 dense_152 (Dense)           (None, 384)               74112     
                                                                 
 batch_normalization_68 (Ba  (None, 384)               1536      
 tchNormalization)                                               
                                                                 
 dropout_109 (Dropout)       (None, 384)               0         
                                                                 
 dense_153 (Dense)           (None, 26)                10010     
                                                                 
=================================================================
Total params: 237146 (926.35 KB)
Trainable params: 235994 (921.85 KB)
Non-trainable params: 1152 (4.50 KB)
_________________________________________________________________



Trial 44:
  Value: 0.8963
  num_layers: 3
  units_0: 224
  units_1: 448
  units_2: 384
  activation_0: tanh
  activation_1: relu
  activation_2: relu
  dropout_0: 0.4
  dropout_1: 0.4
  dropout_2: 0.30000000000000004
  batch_norm_0: False
  batch_norm_1: True
  batch_norm_2: True
  optimizer: rmsprop
  learning_rate: 0.007879267895739136

Model: "sequential_44"
_________________________________________________________________
 Layer (type)                Output Shape              Param #   
=================================================================
 flatten_44 (Flatten)        (None, 784)               0         
                                                                 
 dense_154 (Dense)           (None, 224)               175840    
                                                                 
 dropout_110 (Dropout)       (None, 224)               0         
                                                                 
 dense_155 (Dense)           (None, 448)               100800    
                                                                 
 batch_normalization_69 (Ba  (None, 448)               1792      
 tchNormalization)                                               
                                                                 
 dropout_111 (Dropout)       (None, 448)               0         
                                                                 
 dense_156 (Dense)           (None, 384)               172416    
                                                                 
 batch_normalization_70 (Ba  (None, 384)               1536      
 tchNormalization)                                               
                                                                 
 dropout_112 (Dropout)       (None, 384)               0         
                                                                 
 dense_157 (Dense)           (None, 26)                10010     
                                                                 
=================================================================
Total params: 462394 (1.76 MB)
Trainable params: 460730 (1.76 MB)
Non-trainable params: 1664 (6.50 KB)
_________________________________________________________________



Trial 45:
  Value: 0.6827
  num_layers: 2
  units_0: 128
  units_1: 448
  activation_0: tanh
  activation_1: sigmoid
  dropout_0: 0.30000000000000004
  dropout_1: 0.5
  batch_norm_0: False
  batch_norm_1: False
  optimizer: rmsprop
  learning_rate: 0.007503955643111353

Model: "sequential_45"
_________________________________________________________________
 Layer (type)                Output Shape              Param #   
=================================================================
 flatten_45 (Flatten)        (None, 784)               0         
                                                                 
 dense_158 (Dense)           (None, 128)               100480    
                                                                 
 dropout_113 (Dropout)       (None, 128)               0         
                                                                 
 dense_159 (Dense)           (None, 448)               57792     
                                                                 
 dropout_114 (Dropout)       (None, 448)               0         
                                                                 
 dense_160 (Dense)           (None, 26)                11674     
                                                                 
=================================================================
Total params: 169946 (663.85 KB)
Trainable params: 169946 (663.85 KB)
Non-trainable params: 0 (0.00 Byte)
_________________________________________________________________



Trial 46:
  Value: 0.6075
  num_layers: 1
  units_0: 288
  activation_0: sigmoid
  dropout_0: 0.5
  batch_norm_0: False
  optimizer: adamax
  learning_rate: 0.007969203295037211

Model: "sequential_46"
_________________________________________________________________
 Layer (type)                Output Shape              Param #   
=================================================================
 flatten_46 (Flatten)        (None, 784)               0         
                                                                 
 dense_161 (Dense)           (None, 288)               226080    
                                                                 
 dropout_115 (Dropout)       (None, 288)               0         
                                                                 
 dense_162 (Dense)           (None, 26)                7514      
                                                                 
=================================================================
Total params: 233594 (912.48 KB)
Trainable params: 233594 (912.48 KB)
Non-trainable params: 0 (0.00 Byte)
_________________________________________________________________



Trial 47:
  Value: 0.0389
  num_layers: 3
  units_0: 160
  units_1: 512
  units_2: 384
  activation_0: tanh
  activation_1: relu
  activation_2: relu
  dropout_0: 0.2
  dropout_1: 0.4
  dropout_2: 0.5
  batch_norm_0: False
  batch_norm_1: True
  batch_norm_2: True
  optimizer: ftrl
  learning_rate: 0.005797733769060194

Model: "sequential_47"
_________________________________________________________________
 Layer (type)                Output Shape              Param #   
=================================================================
 flatten_47 (Flatten)        (None, 784)               0         
                                                                 
 dense_163 (Dense)           (None, 160)               125600    
                                                                 
 dropout_116 (Dropout)       (None, 160)               0         
                                                                 
 dense_164 (Dense)           (None, 512)               82432     
                                                                 
 batch_normalization_71 (Ba  (None, 512)               2048      
 tchNormalization)                                               
                                                                 
 dropout_117 (Dropout)       (None, 512)               0         
                                                                 
 dense_165 (Dense)           (None, 384)               196992    
                                                                 
 batch_normalization_72 (Ba  (None, 384)               1536      
 tchNormalization)                                               
                                                                 
 dropout_118 (Dropout)       (None, 384)               0         
                                                                 
 dense_166 (Dense)           (None, 26)                10010     
                                                                 
=================================================================
Total params: 418618 (1.60 MB)
Trainable params: 416826 (1.59 MB)
Non-trainable params: 1792 (7.00 KB)
_________________________________________________________________



Trial 48:
  Value: 0.9003
  num_layers: 3
  units_0: 352
  units_1: 480
  units_2: 288
  activation_0: relu
  activation_1: relu
  activation_2: relu
  dropout_0: 0.4
  dropout_1: 0.4
  dropout_2: 0.4
  batch_norm_0: False
  batch_norm_1: True
  batch_norm_2: True
  optimizer: adam
  learning_rate: 0.0006140378222818938

Model: "sequential_48"
_________________________________________________________________
 Layer (type)                Output Shape              Param #   
=================================================================
 flatten_48 (Flatten)        (None, 784)               0         
                                                                 
 dense_167 (Dense)           (None, 352)               276320    
                                                                 
 dropout_119 (Dropout)       (None, 352)               0         
                                                                 
 dense_168 (Dense)           (None, 480)               169440    
                                                                 
 batch_normalization_73 (Ba  (None, 480)               1920      
 tchNormalization)                                               
                                                                 
 dropout_120 (Dropout)       (None, 480)               0         
                                                                 
 dense_169 (Dense)           (None, 288)               138528    
                                                                 
 batch_normalization_74 (Ba  (None, 288)               1152      
 tchNormalization)                                               
                                                                 
 dropout_121 (Dropout)       (None, 288)               0         
                                                                 
 dense_170 (Dense)           (None, 26)                7514      
                                                                 
=================================================================
Total params: 594874 (2.27 MB)
Trainable params: 593338 (2.26 MB)
Non-trainable params: 1536 (6.00 KB)
_________________________________________________________________



Trial 49:
  Value: 0.7288
  num_layers: 1
  units_0: 64
  activation_0: relu
  dropout_0: 0.1
  batch_norm_0: False
  optimizer: adam
  learning_rate: 0.0005825257965514094

Model: "sequential_49"
_________________________________________________________________
 Layer (type)                Output Shape              Param #   
=================================================================
 flatten_49 (Flatten)        (None, 784)               0         
                                                                 
 dense_171 (Dense)           (None, 64)                50240     
                                                                 
 dropout_122 (Dropout)       (None, 64)                0         
                                                                 
 dense_172 (Dense)           (None, 26)                1690      
                                                                 
=================================================================
Total params: 51930 (202.85 KB)
Trainable params: 51930 (202.85 KB)
Non-trainable params: 0 (0.00 Byte)
_________________________________________________________________



Trial 50:
  Value: 0.8974
  num_layers: 2
  units_0: 352
  units_1: 480
  activation_0: relu
  activation_1: relu
  dropout_0: 0.4
  dropout_1: 0.5
  batch_norm_0: False
  batch_norm_1: False
  optimizer: adam
  learning_rate: 0.0009477560264122566

Model: "sequential_50"
_________________________________________________________________
 Layer (type)                Output Shape              Param #   
=================================================================
 flatten_50 (Flatten)        (None, 784)               0         
                                                                 
 dense_173 (Dense)           (None, 352)               276320    
                                                                 
 dropout_123 (Dropout)       (None, 352)               0         
                                                                 
 dense_174 (Dense)           (None, 480)               169440    
                                                                 
 dropout_124 (Dropout)       (None, 480)               0         
                                                                 
 dense_175 (Dense)           (None, 26)                12506     
                                                                 
=================================================================
Total params: 458266 (1.75 MB)
Trainable params: 458266 (1.75 MB)
Non-trainable params: 0 (0.00 Byte)
_________________________________________________________________



Trial 51:
  Value: 0.9011
  num_layers: 2
  units_0: 352
  units_1: 480
  activation_0: relu
  activation_1: relu
  dropout_0: 0.4
  dropout_1: 0.5
  batch_norm_0: False
  batch_norm_1: False
  optimizer: adam
  learning_rate: 0.0006981886980662115

Model: "sequential_51"
_________________________________________________________________
 Layer (type)                Output Shape              Param #   
=================================================================
 flatten_51 (Flatten)        (None, 784)               0         
                                                                 
 dense_176 (Dense)           (None, 352)               276320    
                                                                 
 dropout_125 (Dropout)       (None, 352)               0         
                                                                 
 dense_177 (Dense)           (None, 480)               169440    
                                                                 
 dropout_126 (Dropout)       (None, 480)               0         
                                                                 
 dense_178 (Dense)           (None, 26)                12506     
                                                                 
=================================================================
Total params: 458266 (1.75 MB)
Trainable params: 458266 (1.75 MB)
Non-trainable params: 0 (0.00 Byte)
_________________________________________________________________



Trial 52:
  Value: 0.9018
  num_layers: 2
  units_0: 384
  units_1: 480
  activation_0: relu
  activation_1: relu
  dropout_0: 0.4
  dropout_1: 0.5
  batch_norm_0: False
  batch_norm_1: False
  optimizer: adam
  learning_rate: 0.0007194134358295802

Model: "sequential_52"
_________________________________________________________________
 Layer (type)                Output Shape              Param #   
=================================================================
 flatten_52 (Flatten)        (None, 784)               0         
                                                                 
 dense_179 (Dense)           (None, 384)               301440    
                                                                 
 dropout_127 (Dropout)       (None, 384)               0         
                                                                 
 dense_180 (Dense)           (None, 480)               184800    
                                                                 
 dropout_128 (Dropout)       (None, 480)               0         
                                                                 
 dense_181 (Dense)           (None, 26)                12506     
                                                                 
=================================================================
Total params: 498746 (1.90 MB)
Trainable params: 498746 (1.90 MB)
Non-trainable params: 0 (0.00 Byte)
_________________________________________________________________



Trial 53:
  Value: 0.9032
  num_layers: 2
  units_0: 384
  units_1: 480
  activation_0: relu
  activation_1: relu
  dropout_0: 0.4
  dropout_1: 0.5
  batch_norm_0: False
  batch_norm_1: False
  optimizer: adam
  learning_rate: 0.0007207884153190031

Model: "sequential_53"
_________________________________________________________________
 Layer (type)                Output Shape              Param #   
=================================================================
 flatten_53 (Flatten)        (None, 784)               0         
                                                                 
 dense_182 (Dense)           (None, 384)               301440    
                                                                 
 dropout_129 (Dropout)       (None, 384)               0         
                                                                 
 dense_183 (Dense)           (None, 480)               184800    
                                                                 
 dropout_130 (Dropout)       (None, 480)               0         
                                                                 
 dense_184 (Dense)           (None, 26)                12506     
                                                                 
=================================================================
Total params: 498746 (1.90 MB)
Trainable params: 498746 (1.90 MB)
Non-trainable params: 0 (0.00 Byte)
_________________________________________________________________



Trial 54:
  Value: 0.9083
  num_layers: 2
  units_0: 480
  units_1: 512
  activation_0: relu
  activation_1: relu
  dropout_0: 0.30000000000000004
  dropout_1: 0.5
  batch_norm_0: False
  batch_norm_1: False
  optimizer: adam
  learning_rate: 0.0006286563925491797

Model: "sequential_54"
_________________________________________________________________
 Layer (type)                Output Shape              Param #   
=================================================================
 flatten_54 (Flatten)        (None, 784)               0         
                                                                 
 dense_185 (Dense)           (None, 480)               376800    
                                                                 
 dropout_131 (Dropout)       (None, 480)               0         
                                                                 
 dense_186 (Dense)           (None, 512)               246272    
                                                                 
 dropout_132 (Dropout)       (None, 512)               0         
                                                                 
 dense_187 (Dense)           (None, 26)                13338     
                                                                 
=================================================================
Total params: 636410 (2.43 MB)
Trainable params: 636410 (2.43 MB)
Non-trainable params: 0 (0.00 Byte)
_________________________________________________________________



Trial 55:
  Value: 0.8990
  num_layers: 2
  units_0: 480
  units_1: 512
  activation_0: relu
  activation_1: relu
  dropout_0: 0.30000000000000004
  dropout_1: 0.5
  batch_norm_0: False
  batch_norm_1: False
  optimizer: adam
  learning_rate: 0.0006568410501324989

Model: "sequential_55"
_________________________________________________________________
 Layer (type)                Output Shape              Param #   
=================================================================
 flatten_55 (Flatten)        (None, 784)               0         
                                                                 
 dense_188 (Dense)           (None, 480)               376800    
                                                                 
 dropout_133 (Dropout)       (None, 480)               0         
                                                                 
 dense_189 (Dense)           (None, 512)               246272    
                                                                 
 dropout_134 (Dropout)       (None, 512)               0         
                                                                 
 dense_190 (Dense)           (None, 26)                13338     
                                                                 
=================================================================
Total params: 636410 (2.43 MB)
Trainable params: 636410 (2.43 MB)
Non-trainable params: 0 (0.00 Byte)
_________________________________________________________________



Trial 56:
  Value: 0.9000
  num_layers: 2
  units_0: 448
  units_1: 480
  activation_0: relu
  activation_1: tanh
  dropout_0: 0.4
  dropout_1: 0.5
  batch_norm_0: False
  batch_norm_1: False
  optimizer: adam
  learning_rate: 0.000425089099255038

Model: "sequential_56"
_________________________________________________________________
 Layer (type)                Output Shape              Param #   
=================================================================
 flatten_56 (Flatten)        (None, 784)               0         
                                                                 
 dense_191 (Dense)           (None, 448)               351680    
                                                                 
 dropout_135 (Dropout)       (None, 448)               0         
                                                                 
 dense_192 (Dense)           (None, 480)               215520    
                                                                 
 dropout_136 (Dropout)       (None, 480)               0         
                                                                 
 dense_193 (Dense)           (None, 26)                12506     
                                                                 
=================================================================
Total params: 579706 (2.21 MB)
Trainable params: 579706 (2.21 MB)
Non-trainable params: 0 (0.00 Byte)
_________________________________________________________________



Trial 57:
  Value: 0.9001
  num_layers: 2
  units_0: 448
  units_1: 480
  activation_0: relu
  activation_1: tanh
  dropout_0: 0.5
  dropout_1: 0.5
  batch_norm_0: False
  batch_norm_1: False
  optimizer: adam
  learning_rate: 0.0004430275087439017

Model: "sequential_57"
_________________________________________________________________
 Layer (type)                Output Shape              Param #   
=================================================================
 flatten_57 (Flatten)        (None, 784)               0         
                                                                 
 dense_194 (Dense)           (None, 448)               351680    
                                                                 
 dropout_137 (Dropout)       (None, 448)               0         
                                                                 
 dense_195 (Dense)           (None, 480)               215520    
                                                                 
 dropout_138 (Dropout)       (None, 480)               0         
                                                                 
 dense_196 (Dense)           (None, 26)                12506     
                                                                 
=================================================================
Total params: 579706 (2.21 MB)
Trainable params: 579706 (2.21 MB)
Non-trainable params: 0 (0.00 Byte)
_________________________________________________________________



Trial 58:
  Value: 0.9018
  num_layers: 2
  units_0: 480
  units_1: 480
  activation_0: relu
  activation_1: tanh
  dropout_0: 0.5
  dropout_1: 0.5
  batch_norm_0: False
  batch_norm_1: False
  optimizer: adam
  learning_rate: 0.00040886149849805994

Model: "sequential_58"
_________________________________________________________________
 Layer (type)                Output Shape              Param #   
=================================================================
 flatten_58 (Flatten)        (None, 784)               0         
                                                                 
 dense_197 (Dense)           (None, 480)               376800    
                                                                 
 dropout_139 (Dropout)       (None, 480)               0         
                                                                 
 dense_198 (Dense)           (None, 480)               230880    
                                                                 
 dropout_140 (Dropout)       (None, 480)               0         
                                                                 
 dense_199 (Dense)           (None, 26)                12506     
                                                                 
=================================================================
Total params: 620186 (2.37 MB)
Trainable params: 620186 (2.37 MB)
Non-trainable params: 0 (0.00 Byte)
_________________________________________________________________



Trial 59:
  Value: 0.9023
  num_layers: 2
  units_0: 512
  units_1: 512
  activation_0: relu
  activation_1: tanh
  dropout_0: 0.5
  dropout_1: 0.5
  batch_norm_0: False
  batch_norm_1: False
  optimizer: adam
  learning_rate: 0.0007388083973087753

Model: "sequential_59"
_________________________________________________________________
 Layer (type)                Output Shape              Param #   
=================================================================
 flatten_59 (Flatten)        (None, 784)               0         
                                                                 
 dense_200 (Dense)           (None, 512)               401920    
                                                                 
 dropout_141 (Dropout)       (None, 512)               0         
                                                                 
 dense_201 (Dense)           (None, 512)               262656    
                                                                 
 dropout_142 (Dropout)       (None, 512)               0         
                                                                 
 dense_202 (Dense)           (None, 26)                13338     
                                                                 
=================================================================
Total params: 677914 (2.59 MB)
Trainable params: 677914 (2.59 MB)
Non-trainable params: 0 (0.00 Byte)
_________________________________________________________________



Trial 60:
  Value: 0.8738
  num_layers: 1
  units_0: 512
  activation_0: relu
  dropout_0: 0.5
  batch_norm_0: False
  optimizer: adam
  learning_rate: 0.0007492027048491718

Model: "sequential_60"
_________________________________________________________________
 Layer (type)                Output Shape              Param #   
=================================================================
 flatten_60 (Flatten)        (None, 784)               0         
                                                                 
 dense_203 (Dense)           (None, 512)               401920    
                                                                 
 dropout_143 (Dropout)       (None, 512)               0         
                                                                 
 dense_204 (Dense)           (None, 26)                13338     
                                                                 
=================================================================
Total params: 415258 (1.58 MB)
Trainable params: 415258 (1.58 MB)
Non-trainable params: 0 (0.00 Byte)
_________________________________________________________________



Trial 61:
  Value: 0.9012
  num_layers: 2
  units_0: 480
  units_1: 512
  activation_0: relu
  activation_1: tanh
  dropout_0: 0.5
  dropout_1: 0.5
  batch_norm_0: False
  batch_norm_1: False
  optimizer: adam
  learning_rate: 0.0004560542395343119

Model: "sequential_61"
_________________________________________________________________
 Layer (type)                Output Shape              Param #   
=================================================================
 flatten_61 (Flatten)        (None, 784)               0         
                                                                 
 dense_205 (Dense)           (None, 480)               376800    
                                                                 
 dropout_144 (Dropout)       (None, 480)               0         
                                                                 
 dense_206 (Dense)           (None, 512)               246272    
                                                                 
 dropout_145 (Dropout)       (None, 512)               0         
                                                                 
 dense_207 (Dense)           (None, 26)                13338     
                                                                 
=================================================================
Total params: 636410 (2.43 MB)
Trainable params: 636410 (2.43 MB)
Non-trainable params: 0 (0.00 Byte)
_________________________________________________________________



Trial 62:
  Value: 0.9016
  num_layers: 2
  units_0: 480
  units_1: 512
  activation_0: relu
  activation_1: tanh
  dropout_0: 0.5
  dropout_1: 0.5
  batch_norm_0: False
  batch_norm_1: False
  optimizer: adam
  learning_rate: 0.00048127956445951134

Model: "sequential_62"
_________________________________________________________________
 Layer (type)                Output Shape              Param #   
=================================================================
 flatten_62 (Flatten)        (None, 784)               0         
                                                                 
 dense_208 (Dense)           (None, 480)               376800    
                                                                 
 dropout_146 (Dropout)       (None, 480)               0         
                                                                 
 dense_209 (Dense)           (None, 512)               246272    
                                                                 
 dropout_147 (Dropout)       (None, 512)               0         
                                                                 
 dense_210 (Dense)           (None, 26)                13338     
                                                                 
=================================================================
Total params: 636410 (2.43 MB)
Trainable params: 636410 (2.43 MB)
Non-trainable params: 0 (0.00 Byte)
_________________________________________________________________



Trial 63:
  Value: 0.9002
  num_layers: 2
  units_0: 480
  units_1: 512
  activation_0: relu
  activation_1: tanh
  dropout_0: 0.5
  dropout_1: 0.5
  batch_norm_0: False
  batch_norm_1: False
  optimizer: adam
  learning_rate: 0.0004975462410660243

Model: "sequential_63"
_________________________________________________________________
 Layer (type)                Output Shape              Param #   
=================================================================
 flatten_63 (Flatten)        (None, 784)               0         
                                                                 
 dense_211 (Dense)           (None, 480)               376800    
                                                                 
 dropout_148 (Dropout)       (None, 480)               0         
                                                                 
 dense_212 (Dense)           (None, 512)               246272    
                                                                 
 dropout_149 (Dropout)       (None, 512)               0         
                                                                 
 dense_213 (Dense)           (None, 26)                13338     
                                                                 
=================================================================
Total params: 636410 (2.43 MB)
Trainable params: 636410 (2.43 MB)
Non-trainable params: 0 (0.00 Byte)
_________________________________________________________________



Trial 64:
  Value: 0.8993
  num_layers: 2
  units_0: 480
  units_1: 512
  activation_0: relu
  activation_1: tanh
  dropout_0: 0.5
  dropout_1: 0.5
  batch_norm_0: False
  batch_norm_1: False
  optimizer: adam
  learning_rate: 0.0003652614397544978

Model: "sequential_64"
_________________________________________________________________
 Layer (type)                Output Shape              Param #   
=================================================================
 flatten_64 (Flatten)        (None, 784)               0         
                                                                 
 dense_214 (Dense)           (None, 480)               376800    
                                                                 
 dropout_150 (Dropout)       (None, 480)               0         
                                                                 
 dense_215 (Dense)           (None, 512)               246272    
                                                                 
 dropout_151 (Dropout)       (None, 512)               0         
                                                                 
 dense_216 (Dense)           (None, 26)                13338     
                                                                 
=================================================================
Total params: 636410 (2.43 MB)
Trainable params: 636410 (2.43 MB)
Non-trainable params: 0 (0.00 Byte)
_________________________________________________________________



Trial 65:
  Value: 0.8931
  num_layers: 2
  units_0: 416
  units_1: 512
  activation_0: relu
  activation_1: tanh
  dropout_0: 0.5
  dropout_1: 0.5
  batch_norm_0: False
  batch_norm_1: False
  optimizer: adam
  learning_rate: 0.000312669333151202

Model: "sequential_65"
_________________________________________________________________
 Layer (type)                Output Shape              Param #   
=================================================================
 flatten_65 (Flatten)        (None, 784)               0         
                                                                 
 dense_217 (Dense)           (None, 416)               326560    
                                                                 
 dropout_152 (Dropout)       (None, 416)               0         
                                                                 
 dense_218 (Dense)           (None, 512)               213504    
                                                                 
 dropout_153 (Dropout)       (None, 512)               0         
                                                                 
 dense_219 (Dense)           (None, 26)                13338     
                                                                 
=================================================================
Total params: 553402 (2.11 MB)
Trainable params: 553402 (2.11 MB)
Non-trainable params: 0 (0.00 Byte)
_________________________________________________________________



Trial 66:
  Value: 0.8956
  num_layers: 2
  units_0: 512
  units_1: 448
  activation_0: relu
  activation_1: tanh
  dropout_0: 0.5
  dropout_1: 0.5
  batch_norm_0: False
  batch_norm_1: False
  optimizer: adam
  learning_rate: 0.0007550408239125509

Model: "sequential_66"
_________________________________________________________________
 Layer (type)                Output Shape              Param #   
=================================================================
 flatten_66 (Flatten)        (None, 784)               0         
                                                                 
 dense_220 (Dense)           (None, 512)               401920    
                                                                 
 dropout_154 (Dropout)       (None, 512)               0         
                                                                 
 dense_221 (Dense)           (None, 448)               229824    
                                                                 
 dropout_155 (Dropout)       (None, 448)               0         
                                                                 
 dense_222 (Dense)           (None, 26)                11674     
                                                                 
=================================================================
Total params: 643418 (2.45 MB)
Trainable params: 643418 (2.45 MB)
Non-trainable params: 0 (0.00 Byte)
_________________________________________________________________



Trial 67:
  Value: 0.8987
  num_layers: 2
  units_0: 480
  units_1: 512
  activation_0: relu
  activation_1: tanh
  dropout_0: 0.5
  dropout_1: 0.5
  batch_norm_0: False
  batch_norm_1: False
  optimizer: adam
  learning_rate: 0.0005168065902827473

Model: "sequential_67"
_________________________________________________________________
 Layer (type)                Output Shape              Param #   
=================================================================
 flatten_67 (Flatten)        (None, 784)               0         
                                                                 
 dense_223 (Dense)           (None, 480)               376800    
                                                                 
 dropout_156 (Dropout)       (None, 480)               0         
                                                                 
 dense_224 (Dense)           (None, 512)               246272    
                                                                 
 dropout_157 (Dropout)       (None, 512)               0         
                                                                 
 dense_225 (Dense)           (None, 26)                13338     
                                                                 
=================================================================
Total params: 636410 (2.43 MB)
Trainable params: 636410 (2.43 MB)
Non-trainable params: 0 (0.00 Byte)
_________________________________________________________________



Trial 68:
  Value: 0.8975
  num_layers: 2
  units_0: 448
  units_1: 480
  activation_0: relu
  activation_1: tanh
  dropout_0: 0.5
  dropout_1: 0.5
  batch_norm_0: False
  batch_norm_1: False
  optimizer: adam
  learning_rate: 0.0008624509614322566

Model: "sequential_68"
_________________________________________________________________
 Layer (type)                Output Shape              Param #   
=================================================================
 flatten_68 (Flatten)        (None, 784)               0         
                                                                 
 dense_226 (Dense)           (None, 448)               351680    
                                                                 
 dropout_158 (Dropout)       (None, 448)               0         
                                                                 
 dense_227 (Dense)           (None, 480)               215520    
                                                                 
 dropout_159 (Dropout)       (None, 480)               0         
                                                                 
 dense_228 (Dense)           (None, 26)                12506     
                                                                 
=================================================================
Total params: 579706 (2.21 MB)
Trainable params: 579706 (2.21 MB)
Non-trainable params: 0 (0.00 Byte)
_________________________________________________________________



Trial 69:
  Value: 0.8967
  num_layers: 2
  units_0: 512
  units_1: 480
  activation_0: relu
  activation_1: tanh
  dropout_0: 0.5
  dropout_1: 0.5
  batch_norm_0: False
  batch_norm_1: False
  optimizer: adam
  learning_rate: 0.0005722201062368501

Model: "sequential_69"
_________________________________________________________________
 Layer (type)                Output Shape              Param #   
=================================================================
 flatten_69 (Flatten)        (None, 784)               0         
                                                                 
 dense_229 (Dense)           (None, 512)               401920    
                                                                 
 dropout_160 (Dropout)       (None, 512)               0         
                                                                 
 dense_230 (Dense)           (None, 480)               246240    
                                                                 
 dropout_161 (Dropout)       (None, 480)               0         
                                                                 
 dense_231 (Dense)           (None, 26)                12506     
                                                                 
=================================================================
Total params: 660666 (2.52 MB)
Trainable params: 660666 (2.52 MB)
Non-trainable params: 0 (0.00 Byte)
_________________________________________________________________



Trial 70:
  Value: 0.8981
  num_layers: 2
  units_0: 480
  units_1: 512
  activation_0: relu
  activation_1: tanh
  dropout_0: 0.5
  dropout_1: 0.5
  batch_norm_0: False
  batch_norm_1: False
  optimizer: adam
  learning_rate: 0.0012751236213060723

Model: "sequential_70"
_________________________________________________________________
 Layer (type)                Output Shape              Param #   
=================================================================
 flatten_70 (Flatten)        (None, 784)               0         
                                                                 
 dense_232 (Dense)           (None, 480)               376800    
                                                                 
 dropout_162 (Dropout)       (None, 480)               0         
                                                                 
 dense_233 (Dense)           (None, 512)               246272    
                                                                 
 dropout_163 (Dropout)       (None, 512)               0         
                                                                 
 dense_234 (Dense)           (None, 26)                13338     
                                                                 
=================================================================
Total params: 636410 (2.43 MB)
Trainable params: 636410 (2.43 MB)
Non-trainable params: 0 (0.00 Byte)
_________________________________________________________________



Trial 71:
  Value: 0.8993
  num_layers: 2
  units_0: 384
  units_1: 480
  activation_0: relu
  activation_1: tanh
  dropout_0: 0.4
  dropout_1: 0.5
  batch_norm_0: False
  batch_norm_1: False
  optimizer: adam
  learning_rate: 0.0006669745514423989

Model: "sequential_71"
_________________________________________________________________
 Layer (type)                Output Shape              Param #   
=================================================================
 flatten_71 (Flatten)        (None, 784)               0         
                                                                 
 dense_235 (Dense)           (None, 384)               301440    
                                                                 
 dropout_164 (Dropout)       (None, 384)               0         
                                                                 
 dense_236 (Dense)           (None, 480)               184800    
                                                                 
 dropout_165 (Dropout)       (None, 480)               0         
                                                                 
 dense_237 (Dense)           (None, 26)                12506     
                                                                 
=================================================================
Total params: 498746 (1.90 MB)
Trainable params: 498746 (1.90 MB)
Non-trainable params: 0 (0.00 Byte)
_________________________________________________________________



Trial 72:
  Value: 0.8985
  num_layers: 2
  units_0: 416
  units_1: 448
  activation_0: relu
  activation_1: tanh
  dropout_0: 0.5
  dropout_1: 0.5
  batch_norm_0: False
  batch_norm_1: False
  optimizer: adam
  learning_rate: 0.0007739356171686955

Model: "sequential_72"
_________________________________________________________________
 Layer (type)                Output Shape              Param #   
=================================================================
 flatten_72 (Flatten)        (None, 784)               0         
                                                                 
 dense_238 (Dense)           (None, 416)               326560    
                                                                 
 dropout_166 (Dropout)       (None, 416)               0         
                                                                 
 dense_239 (Dense)           (None, 448)               186816    
                                                                 
 dropout_167 (Dropout)       (None, 448)               0         
                                                                 
 dense_240 (Dense)           (None, 26)                11674     
                                                                 
=================================================================
Total params: 525050 (2.00 MB)
Trainable params: 525050 (2.00 MB)
Non-trainable params: 0 (0.00 Byte)
_________________________________________________________________



Trial 73:
  Value: 0.8970
  num_layers: 2
  units_0: 384
  units_1: 512
  activation_0: relu
  activation_1: tanh
  dropout_0: 0.4
  dropout_1: 0.5
  batch_norm_0: False
  batch_norm_1: False
  optimizer: adam
  learning_rate: 0.0010555657972649752

Model: "sequential_73"
_________________________________________________________________
 Layer (type)                Output Shape              Param #   
=================================================================
 flatten_73 (Flatten)        (None, 784)               0         
                                                                 
 dense_241 (Dense)           (None, 384)               301440    
                                                                 
 dropout_168 (Dropout)       (None, 384)               0         
                                                                 
 dense_242 (Dense)           (None, 512)               197120    
                                                                 
 dropout_169 (Dropout)       (None, 512)               0         
                                                                 
 dense_243 (Dense)           (None, 26)                13338     
                                                                 
=================================================================
Total params: 511898 (1.95 MB)
Trainable params: 511898 (1.95 MB)
Non-trainable params: 0 (0.00 Byte)
_________________________________________________________________



Trial 74:
  Value: 0.8879
  num_layers: 2
  units_0: 448
  units_1: 448
  activation_0: relu
  activation_1: tanh
  dropout_0: 0.5
  dropout_1: 0.5
  batch_norm_0: False
  batch_norm_1: False
  optimizer: adam
  learning_rate: 0.0006806848414404472

Model: "sequential_74"
_________________________________________________________________
 Layer (type)                Output Shape              Param #   
=================================================================
 flatten_74 (Flatten)        (None, 784)               0         
                                                                 
 dense_244 (Dense)           (None, 448)               351680    
                                                                 
 dropout_170 (Dropout)       (None, 448)               0         
                                                                 
 dense_245 (Dense)           (None, 448)               201152    
                                                                 
 dropout_171 (Dropout)       (None, 448)               0         
                                                                 
 dense_246 (Dense)           (None, 26)                11674     
                                                                 
=================================================================
Total params: 564506 (2.15 MB)
Trainable params: 564506 (2.15 MB)
Non-trainable params: 0 (0.00 Byte)
_________________________________________________________________



Trial 75:
  Value: 0.7993
  num_layers: 2
  units_0: 512
  units_1: 480
  activation_0: relu
  activation_1: sigmoid
  dropout_0: 0.5
  dropout_1: 0.5
  batch_norm_0: False
  batch_norm_1: False
  optimizer: adam
  learning_rate: 0.0005272400797825813

Model: "sequential_75"
_________________________________________________________________
 Layer (type)                Output Shape              Param #   
=================================================================
 flatten_75 (Flatten)        (None, 784)               0         
                                                                 
 dense_247 (Dense)           (None, 512)               401920    
                                                                 
 dropout_172 (Dropout)       (None, 512)               0         
                                                                 
 dense_248 (Dense)           (None, 480)               246240    
                                                                 
 dropout_173 (Dropout)       (None, 480)               0         
                                                                 
 dense_249 (Dense)           (None, 26)                12506     
                                                                 
=================================================================
Total params: 660666 (2.52 MB)
Trainable params: 660666 (2.52 MB)
Non-trainable params: 0 (0.00 Byte)
_________________________________________________________________



Trial 76:
  Value: 0.9010
  num_layers: 2
  units_0: 416
  units_1: 512
  activation_0: relu
  activation_1: tanh
  dropout_0: 0.4
  dropout_1: 0.5
  batch_norm_0: False
  batch_norm_1: False
  optimizer: adam
  learning_rate: 0.00045065459257974204

Model: "sequential_76"
_________________________________________________________________
 Layer (type)                Output Shape              Param #   
=================================================================
 flatten_76 (Flatten)        (None, 784)               0         
                                                                 
 dense_250 (Dense)           (None, 416)               326560    
                                                                 
 dropout_174 (Dropout)       (None, 416)               0         
                                                                 
 dense_251 (Dense)           (None, 512)               213504    
                                                                 
 dropout_175 (Dropout)       (None, 512)               0         
                                                                 
 dense_252 (Dense)           (None, 26)                13338     
                                                                 
=================================================================
Total params: 553402 (2.11 MB)
Trainable params: 553402 (2.11 MB)
Non-trainable params: 0 (0.00 Byte)
_________________________________________________________________



Trial 77:
  Value: 0.1885
  num_layers: 2
  units_0: 480
  units_1: 480
  activation_0: relu
  activation_1: tanh
  dropout_0: 0.4
  dropout_1: 0.5
  batch_norm_0: False
  batch_norm_1: False
  optimizer: adagrad
  learning_rate: 0.000845530357311009

Model: "sequential_77"
_________________________________________________________________
 Layer (type)                Output Shape              Param #   
=================================================================
 flatten_77 (Flatten)        (None, 784)               0         
                                                                 
 dense_253 (Dense)           (None, 480)               376800    
                                                                 
 dropout_176 (Dropout)       (None, 480)               0         
                                                                 
 dense_254 (Dense)           (None, 480)               230880    
                                                                 
 dropout_177 (Dropout)       (None, 480)               0         
                                                                 
 dense_255 (Dense)           (None, 26)                12506     
                                                                 
=================================================================
Total params: 620186 (2.37 MB)
Trainable params: 620186 (2.37 MB)
Non-trainable params: 0 (0.00 Byte)
_________________________________________________________________



Trial 78:
  Value: 0.8168
  num_layers: 1
  units_0: 448
  activation_0: relu
  dropout_0: 0.5
  batch_norm_0: False
  optimizer: adam
  learning_rate: 0.00033724084657349543

Model: "sequential_78"
_________________________________________________________________
 Layer (type)                Output Shape              Param #   
=================================================================
 flatten_78 (Flatten)        (None, 784)               0         
                                                                 
 dense_256 (Dense)           (None, 448)               351680    
                                                                 
 dropout_178 (Dropout)       (None, 448)               0         
                                                                 
 dense_257 (Dense)           (None, 26)                11674     
                                                                 
=================================================================
Total params: 363354 (1.39 MB)
Trainable params: 363354 (1.39 MB)
Non-trainable params: 0 (0.00 Byte)
_________________________________________________________________



Trial 79:
  Value: 0.8708
  num_layers: 2
  units_0: 384
  units_1: 480
  activation_0: relu
  activation_1: tanh
  dropout_0: 0.5
  dropout_1: 0.5
  batch_norm_0: False
  batch_norm_1: False
  optimizer: adam
  learning_rate: 0.0006066103983411583

Model: "sequential_79"
_________________________________________________________________
 Layer (type)                Output Shape              Param #   
=================================================================
 flatten_79 (Flatten)        (None, 784)               0         
                                                                 
 dense_258 (Dense)           (None, 384)               301440    
                                                                 
 dropout_179 (Dropout)       (None, 384)               0         
                                                                 
 dense_259 (Dense)           (None, 480)               184800    
                                                                 
 dropout_180 (Dropout)       (None, 480)               0         
                                                                 
 dense_260 (Dense)           (None, 26)                12506     
                                                                 
=================================================================
Total params: 498746 (1.90 MB)
Trainable params: 498746 (1.90 MB)
Non-trainable params: 0 (0.00 Byte)
_________________________________________________________________



Trial 80:
  Value: 0.7973
  num_layers: 2
  units_0: 512
  units_1: 448
  activation_0: relu
  activation_1: sigmoid
  dropout_0: 0.4
  dropout_1: 0.5
  batch_norm_0: False
  batch_norm_1: False
  optimizer: adam
  learning_rate: 0.000392472159705521

Model: "sequential_80"
_________________________________________________________________
 Layer (type)                Output Shape              Param #   
=================================================================
 flatten_80 (Flatten)        (None, 784)               0         
                                                                 
 dense_261 (Dense)           (None, 512)               401920    
                                                                 
 dropout_181 (Dropout)       (None, 512)               0         
                                                                 
 dense_262 (Dense)           (None, 448)               229824    
                                                                 
 dropout_182 (Dropout)       (None, 448)               0         
                                                                 
 dense_263 (Dense)           (None, 26)                11674     
                                                                 
=================================================================
Total params: 643418 (2.45 MB)
Trainable params: 643418 (2.45 MB)
Non-trainable params: 0 (0.00 Byte)
_________________________________________________________________



Trial 81:
  Value: 0.9010
  num_layers: 2
  units_0: 416
  units_1: 512
  activation_0: relu
  activation_1: tanh
  dropout_0: 0.4
  dropout_1: 0.5
  batch_norm_0: False
  batch_norm_1: False
  optimizer: adam
  learning_rate: 0.00045948540422209897

Model: "sequential_81"
_________________________________________________________________
 Layer (type)                Output Shape              Param #   
=================================================================
 flatten_81 (Flatten)        (None, 784)               0         
                                                                 
 dense_264 (Dense)           (None, 416)               326560    
                                                                 
 dropout_183 (Dropout)       (None, 416)               0         
                                                                 
 dense_265 (Dense)           (None, 512)               213504    
                                                                 
 dropout_184 (Dropout)       (None, 512)               0         
                                                                 
 dense_266 (Dense)           (None, 26)                13338     
                                                                 
=================================================================
Total params: 553402 (2.11 MB)
Trainable params: 553402 (2.11 MB)
Non-trainable params: 0 (0.00 Byte)
_________________________________________________________________



Trial 82:
  Value: 0.8972
  num_layers: 2
  units_0: 416
  units_1: 512
  activation_0: relu
  activation_1: tanh
  dropout_0: 0.4
  dropout_1: 0.5
  batch_norm_0: False
  batch_norm_1: False
  optimizer: adam
  learning_rate: 0.0004803162063498206

Model: "sequential_82"
_________________________________________________________________
 Layer (type)                Output Shape              Param #   
=================================================================
 flatten_82 (Flatten)        (None, 784)               0         
                                                                 
 dense_267 (Dense)           (None, 416)               326560    
                                                                 
 dropout_185 (Dropout)       (None, 416)               0         
                                                                 
 dense_268 (Dense)           (None, 512)               213504    
                                                                 
 dropout_186 (Dropout)       (None, 512)               0         
                                                                 
 dense_269 (Dense)           (None, 26)                13338     
                                                                 
=================================================================
Total params: 553402 (2.11 MB)
Trainable params: 553402 (2.11 MB)
Non-trainable params: 0 (0.00 Byte)
_________________________________________________________________



Trial 83:
  Value: 0.8993
  num_layers: 2
  units_0: 448
  units_1: 512
  activation_0: relu
  activation_1: tanh
  dropout_0: 0.4
  dropout_1: 0.5
  batch_norm_0: False
  batch_norm_1: False
  optimizer: adam
  learning_rate: 0.0005475908949975534

Model: "sequential_83"
_________________________________________________________________
 Layer (type)                Output Shape              Param #   
=================================================================
 flatten_83 (Flatten)        (None, 784)               0         
                                                                 
 dense_270 (Dense)           (None, 448)               351680    
                                                                 
 dropout_187 (Dropout)       (None, 448)               0         
                                                                 
 dense_271 (Dense)           (None, 512)               229888    
                                                                 
 dropout_188 (Dropout)       (None, 512)               0         
                                                                 
 dense_272 (Dense)           (None, 26)                13338     
                                                                 
=================================================================
Total params: 594906 (2.27 MB)
Trainable params: 594906 (2.27 MB)
Non-trainable params: 0 (0.00 Byte)
_________________________________________________________________



Trial 84:
  Value: 0.4167
  num_layers: 2
  units_0: 384
  units_1: 480
  activation_0: relu
  activation_1: tanh
  dropout_0: 0.5
  dropout_1: 0.1
  batch_norm_0: False
  batch_norm_1: False
  optimizer: sgd
  learning_rate: 0.0003880999909786062

Model: "sequential_84"
_________________________________________________________________
 Layer (type)                Output Shape              Param #   
=================================================================
 flatten_84 (Flatten)        (None, 784)               0         
                                                                 
 dense_273 (Dense)           (None, 384)               301440    
                                                                 
 dropout_189 (Dropout)       (None, 384)               0         
                                                                 
 dense_274 (Dense)           (None, 480)               184800    
                                                                 
 dropout_190 (Dropout)       (None, 480)               0         
                                                                 
 dense_275 (Dense)           (None, 26)                12506     
                                                                 
=================================================================
Total params: 498746 (1.90 MB)
…
  dropout_0: 0.4
  dropout_1: 0.2
  dropout_2: 0.1
  dropout_3: 0.0
  batch_norm_0: False
  batch_norm_1: True
  batch_norm_2: True
  batch_norm_3: False
  optimizer: adam
  learning_rate: 0.004026360938610555

Model: "sequential_970"
_________________________________________________________________
 Layer (type)                Output Shape              Param #   
=================================================================
 flatten_970 (Flatten)       (None, 784)               0         
                                                                 
 dense_4729 (Dense)          (None, 512)               401920    
                                                                 
 dropout_3759 (Dropout)      (None, 512)               0         
                                                                 
 dense_4730 (Dense)          (None, 416)               213408    
                                                                 
 batch_normalization_1101 (  (None, 416)               1664      
 BatchNormalization)                                             
                                                                 
 dropout_3760 (Dropout)      (None, 416)               0         
                                                                 
 dense_4731 (Dense)          (None, 416)               173472    
                                                                 
 batch_normalization_1102 (  (None, 416)               1664      
 BatchNormalization)                                             
                                                                 
 dropout_3761 (Dropout)      (None, 416)               0         
                                                                 
 dense_4732 (Dense)          (None, 384)               160128    
                                                                 
 dropout_3762 (Dropout)      (None, 384)               0         
                                                                 
 dense_4733 (Dense)          (None, 26)                10010     
                                                                 
=================================================================
Total params: 962266 (3.67 MB)
Trainable params: 960602 (3.66 MB)
Non-trainable params: 1664 (6.50 KB)
_________________________________________________________________



Trial 971:
  Value: 0.7991
  num_layers: 4
  units_0: 480
  units_1: 416
  units_2: 448
  units_3: 320
  activation_0: tanh
  activation_1: sigmoid
  activation_2: relu
  activation_3: sigmoid
  dropout_0: 0.4
  dropout_1: 0.2
  dropout_2: 0.1
  dropout_3: 0.0
  batch_norm_0: False
  batch_norm_1: False
  batch_norm_2: False
  batch_norm_3: False
  optimizer: adam
  learning_rate: 0.004349286389266493

Model: "sequential_971"
_________________________________________________________________
 Layer (type)                Output Shape              Param #   
=================================================================
 flatten_971 (Flatten)       (None, 784)               0         
                                                                 
 dense_4734 (Dense)          (None, 480)               376800    
                                                                 
 dropout_3763 (Dropout)      (None, 480)               0         
                                                                 
 dense_4735 (Dense)          (None, 416)               200096    
                                                                 
 dropout_3764 (Dropout)      (None, 416)               0         
                                                                 
 dense_4736 (Dense)          (None, 448)               186816    
                                                                 
 dropout_3765 (Dropout)      (None, 448)               0         
                                                                 
 dense_4737 (Dense)          (None, 320)               143680    
                                                                 
 dropout_3766 (Dropout)      (None, 320)               0         
                                                                 
 dense_4738 (Dense)          (None, 26)                8346      
                                                                 
=================================================================
Total params: 915738 (3.49 MB)
Trainable params: 915738 (3.49 MB)
Non-trainable params: 0 (0.00 Byte)
_________________________________________________________________



Trial 972:
  Value: 0.9200
  num_layers: 4
  units_0: 512
  units_1: 416
  units_2: 512
  units_3: 352
…
  units_1: 352
  units_2: 512
  units_3: 320
  activation_0: relu
  activation_1: sigmoid
  activation_2: sigmoid
  activation_3: sigmoid
  dropout_0: 0.4
  dropout_1: 0.2
  dropout_2: 0.2
  dropout_3: 0.0
  batch_norm_0: False
  batch_norm_1: False
  batch_norm_2: True
  batch_norm_3: False
  optimizer: adam
  learning_rate: 0.004047791467762601

Model: "sequential_973"
_________________________________________________________________
 Layer (type)                Output Shape              Param #   
=================================================================
 flatten_973 (Flatten)       (None, 784)               0         
                                                                 
 dense_4744 (Dense)          (None, 480)               376800    
                                                                 
 dropout_3771 (Dropout)      (None, 480)               0         
                                                                 
 dense_4745 (Dense)          (None, 352)               169312    
                                                                 
 dropout_3772 (Dropout)      (None, 352)               0         
                                                                 
 dense_4746 (Dense)          (None, 512)               180736    
                                                                 
 batch_normalization_1104 (  (None, 512)               2048      
 BatchNormalization)                                             
                                                                 
 dropout_3773 (Dropout)      (None, 512)               0         
                                                                 
 dense_4747 (Dense)          (None, 320)               164160    
                                                                 
 dropout_3774 (Dropout)      (None, 320)               0         
                                                                 
 dense_4748 (Dense)          (None, 26)                8346      
                                                                 
=================================================================
Total params: 901402 (3.44 MB)
Trainable params: 900378 (3.43 MB)
Non-trainable params: 1024 (4.00 KB)
_________________________________________________________________



Trial 974:
  Value: 0.8124
  num_layers: 2
  units_0: 512
  units_1: 384
  activation_0: relu
  activation_1: sigmoid
  dropout_0: 0.1
  dropout_1: 0.30000000000000004
  batch_norm_0: False
  batch_norm_1: False
  optimizer: adam
  learning_rate: 0.006338119095699004

Model: "sequential_974"
_________________________________________________________________
 Layer (type)                Output Shape              Param #   
=================================================================
 flatten_974 (Flatten)       (None, 784)               0         
                                                                 
 dense_4749 (Dense)          (None, 512)               401920    
                                                                 
 dropout_3775 (Dropout)      (None, 512)               0         
                                                                 
 dense_4750 (Dense)          (None, 384)               196992    
                                                                 
 dropout_3776 (Dropout)      (None, 384)               0         
                                                                 
 dense_4751 (Dense)          (None, 26)                10010     
                                                                 
=================================================================
Total params: 608922 (2.32 MB)
Trainable params: 608922 (2.32 MB)
Non-trainable params: 0 (0.00 Byte)
_________________________________________________________________



Trial 975:
  Value: 0.8562
  num_layers: 4
  units_0: 448
  units_1: 416
  units_2: 384
  units_3: 320
  activation_0: relu
  activation_1: sigmoid
  activation_2: relu
  activation_3: sigmoid
  dropout_0: 0.4
  dropout_1: 0.2
  dropout_2: 0.30000000000000004
  dropout_3: 0.0
  batch_norm_0: False
  batch_norm_1: False
  batch_norm_2: True
  batch_norm_3: False
  optimizer: adam
  learning_rate: 0.009327904843958257

Model: "sequential_975"
_________________________________________________________________
 Layer (type)                Output Shape              Param #   
=================================================================
 flatten_975 (Flatten)       (None, 784)               0         
                                                                 
 dense_4752 (Dense)          (None, 448)               351680    
                                                                 
 dropout_3777 (Dropout)      (None, 448)               0         
                                                                 
 dense_4753 (Dense)          (None, 416)               186784    
                                                                 
 dropout_3778 (Dropout)      (None, 416)               0         
                                                                 
 dense_4754 (Dense)          (None, 384)               160128    
                                                                 
 batch_normalization_1105 (  (None, 384)               1536      
 BatchNormalization)                                             
                                                                 
 dropout_3779 (Dropout)      (None, 384)               0         
                                                                 
 dense_4755 (Dense)          (None, 320)               123200    
                                                                 
 dropout_3780 (Dropout)      (None, 320)               0         
                                                                 
 dense_4756 (Dense)          (None, 26)                8346      
                                                                 
=================================================================
Total params: 831674 (3.17 MB)
Trainable params: 830906 (3.17 MB)
Non-trainable params: 768 (3.00 KB)
_________________________________________________________________



Trial 976:
  Value: 0.0699
  num_layers: 4
  units_0: 512
  units_1: 416
  units_2: 416
  units_3: 320
…
  units_0: 384
  units_1: 320
  units_2: 512
  units_3: 320
  activation_0: relu
  activation_1: sigmoid
  activation_2: relu
  activation_3: sigmoid
  dropout_0: 0.2
  dropout_1: 0.2
  dropout_2: 0.1
  dropout_3: 0.0
  batch_norm_0: True
  batch_norm_1: False
  batch_norm_2: True
  batch_norm_3: False
  optimizer: adam
  learning_rate: 0.0067253767752882025

Model: "sequential_977"
_________________________________________________________________
 Layer (type)                Output Shape              Param #   
=================================================================
 flatten_977 (Flatten)       (None, 784)               0         
                                                                 
 dense_4762 (Dense)          (None, 384)               301440    
                                                                 
 batch_normalization_1107 (  (None, 384)               1536      
 BatchNormalization)                                             
                                                                 
 dropout_3785 (Dropout)      (None, 384)               0         
                                                                 
 dense_4763 (Dense)          (None, 320)               123200    
                                                                 
 dropout_3786 (Dropout)      (None, 320)               0         
                                                                 
 dense_4764 (Dense)          (None, 512)               164352    
                                                                 
 batch_normalization_1108 (  (None, 512)               2048      
 BatchNormalization)                                             
                                                                 
 dropout_3787 (Dropout)      (None, 512)               0         
                                                                 
 dense_4765 (Dense)          (None, 320)               164160    
                                                                 
 dropout_3788 (Dropout)      (None, 320)               0         
                                                                 
 dense_4766 (Dense)          (None, 26)                8346      
                                                                 
=================================================================
Total params: 765082 (2.92 MB)
Trainable params: 763290 (2.91 MB)
Non-trainable params: 1792 (7.00 KB)
_________________________________________________________________



Trial 978:
  Value: 0.7759
  num_layers: 4
  units_0: 480
  units_1: 416
  units_2: 448
  units_3: 288
  activation_0: sigmoid
  activation_1: sigmoid
  activation_2: relu
  activation_3: sigmoid
  dropout_0: 0.4
  dropout_1: 0.2
  dropout_2: 0.1
  dropout_3: 0.0
  batch_norm_0: False
  batch_norm_1: False
  batch_norm_2: True
  batch_norm_3: False
  optimizer: adam
  learning_rate: 0.005684711423790815

Model: "sequential_978"
_________________________________________________________________
 Layer (type)                Output Shape              Param #   
=================================================================
 flatten_978 (Flatten)       (None, 784)               0         
                                                                 
 dense_4767 (Dense)          (None, 480)               376800    
                                                                 
 dropout_3789 (Dropout)      (None, 480)               0         
                                                                 
 dense_4768 (Dense)          (None, 416)               200096    
                                                                 
 dropout_3790 (Dropout)      (None, 416)               0         
                                                                 
 dense_4769 (Dense)          (None, 448)               186816    
                                                                 
 batch_normalization_1109 (  (None, 448)               1792      
 BatchNormalization)                                             
                                                                 
 dropout_3791 (Dropout)      (None, 448)               0         
                                                                 
 dense_4770 (Dense)          (None, 288)               129312    
                                                                 
 dropout_3792 (Dropout)      (None, 288)               0         
                                                                 
 dense_4771 (Dense)          (None, 26)                7514      
                                                                 
=================================================================
Total params: 902330 (3.44 MB)
Trainable params: 901434 (3.44 MB)
Non-trainable params: 896 (3.50 KB)
_________________________________________________________________



Trial 979:
  Value: 0.8746
  num_layers: 4
  units_0: 512
  units_1: 416
  units_2: 512
  units_3: 384
  activation_0: relu
  activation_1: sigmoid
  activation_2: relu
  activation_3: sigmoid
  dropout_0: 0.4
  dropout_1: 0.2
  dropout_2: 0.1
  dropout_3: 0.0
  batch_norm_0: False
  batch_norm_1: False
  batch_norm_2: True
  batch_norm_3: False
  optimizer: adam
  learning_rate: 0.0037912757983451424

Model: "sequential_979"
_________________________________________________________________
 Layer (type)                Output Shape              Param #   
=================================================================
 flatten_979 (Flatten)       (None, 784)               0         
                                                                 
 dense_4772 (Dense)          (None, 512)               401920    
                                                                 
 dropout_3793 (Dropout)      (None, 512)               0         
                                                                 
 dense_4773 (Dense)          (None, 416)               213408    
                                                                 
 dropout_3794 (Dropout)      (None, 416)               0         
                                                                 
 dense_4774 (Dense)          (None, 512)               213504    
                                                                 
 batch_normalization_1110 (  (None, 512)               2048      
 BatchNormalization)                                             
                                                                 
 dropout_3795 (Dropout)      (None, 512)               0         
                                                                 
 dense_4775 (Dense)          (None, 384)               196992    
                                                                 
 dropout_3796 (Dropout)      (None, 384)               0         
                                                                 
 dense_4776 (Dense)          (None, 26)                10010     
                                                                 
=================================================================
Total params: 1037882 (3.96 MB)
Trainable params: 1036858 (3.96 MB)
Non-trainable params: 1024 (4.00 KB)
_________________________________________________________________



Trial 980:
  Value: 0.8634
  num_layers: 4
  units_0: 480
  units_1: 384
  units_2: 512
  units_3: 352
  activation_0: relu
  activation_1: sigmoid
  activation_2: relu
  activation_3: sigmoid
  dropout_0: 0.4
  dropout_1: 0.2
  dropout_2: 0.1
  dropout_3: 0.0
  batch_norm_0: False
  batch_norm_1: False
  batch_norm_2: True
  batch_norm_3: False
  optimizer: adam
  learning_rate: 0.006046567730998655

Model: "sequential_980"
_________________________________________________________________
 Layer (type)                Output Shape              Param #   
=================================================================
 flatten_980 (Flatten)       (None, 784)               0         
                                                                 
 dense_4777 (Dense)          (None, 480)               376800    
                                                                 
 dropout_3797 (Dropout)      (None, 480)               0         
                                                                 
 dense_4778 (Dense)          (None, 384)               184704    
                                                                 
 dropout_3798 (Dropout)      (None, 384)               0         
                                                                 
 dense_4779 (Dense)          (None, 512)               197120    
                                                                 
 batch_normalization_1111 (  (None, 512)               2048      
 BatchNormalization)                                             
                                                                 
 dropout_3799 (Dropout)      (None, 512)               0         
                                                                 
 dense_4780 (Dense)          (None, 352)               180576    
                                                                 
 dropout_3800 (Dropout)      (None, 352)               0         
                                                                 
 dense_4781 (Dense)          (None, 26)                9178      
                                                                 
=================================================================
Total params: 950426 (3.63 MB)
Trainable params: 949402 (3.62 MB)
Non-trainable params: 1024 (4.00 KB)
_________________________________________________________________



Trial 981:
  Value: 0.7938
  num_layers: 4
  units_0: 512
  units_1: 416
  units_2: 512
  units_3: 320
…
  units_0: 160
  units_1: 384
  units_2: 480
  units_3: 288
  activation_0: relu
  activation_1: sigmoid
  activation_2: relu
  activation_3: sigmoid
  dropout_0: 0.4
  dropout_1: 0.2
  dropout_2: 0.2
  dropout_3: 0.0
  batch_norm_0: False
  batch_norm_1: False
  batch_norm_2: True
  batch_norm_3: False
  optimizer: adam
  learning_rate: 0.0010525111437378254

Model: "sequential_982"
_________________________________________________________________
 Layer (type)                Output Shape              Param #   
=================================================================
 flatten_982 (Flatten)       (None, 784)               0         
                                                                 
 dense_4787 (Dense)          (None, 160)               125600    
                                                                 
 dropout_3805 (Dropout)      (None, 160)               0         
                                                                 
 dense_4788 (Dense)          (None, 384)               61824     
                                                                 
 dropout_3806 (Dropout)      (None, 384)               0         
                                                                 
 dense_4789 (Dense)          (None, 480)               184800    
                                                                 
 batch_normalization_1113 (  (None, 480)               1920      
 BatchNormalization)                                             
                                                                 
 dropout_3807 (Dropout)      (None, 480)               0         
                                                                 
 dense_4790 (Dense)          (None, 288)               138528    
                                                                 
 dropout_3808 (Dropout)      (None, 288)               0         
                                                                 
 dense_4791 (Dense)          (None, 26)                7514      
                                                                 
=================================================================
Total params: 520186 (1.98 MB)
Trainable params: 519226 (1.98 MB)
Non-trainable params: 960 (3.75 KB)
_________________________________________________________________



Trial 983:
  Value: 0.9214
  num_layers: 4
  units_0: 512
  units_1: 256
  units_2: 512
  units_3: 288
  activation_0: relu
  activation_1: sigmoid
  activation_2: relu
  activation_3: sigmoid
  dropout_0: 0.2
  dropout_1: 0.2
  dropout_2: 0.1
  dropout_3: 0.0
  batch_norm_0: False
  batch_norm_1: False
  batch_norm_2: True
  batch_norm_3: False
  optimizer: adam
  learning_rate: 0.0034139828275590823

Model: "sequential_983"
_________________________________________________________________
 Layer (type)                Output Shape              Param #   
=================================================================
 flatten_983 (Flatten)       (None, 784)               0         
                                                                 
 dense_4792 (Dense)          (None, 512)               401920    
                                                                 
 dropout_3809 (Dropout)      (None, 512)               0         
                                                                 
 dense_4793 (Dense)          (None, 256)               131328    
                                                                 
 dropout_3810 (Dropout)      (None, 256)               0         
                                                                 
 dense_4794 (Dense)          (None, 512)               131584    
                                                                 
 batch_normalization_1114 (  (None, 512)               2048      
 BatchNormalization)                                             
                                                                 
 dropout_3811 (Dropout)      (None, 512)               0         
                                                                 
 dense_4795 (Dense)          (None, 288)               147744    
                                                                 
 dropout_3812 (Dropout)      (None, 288)               0         
                                                                 
 dense_4796 (Dense)          (None, 26)                7514      
                                                                 
=================================================================
Total params: 822138 (3.14 MB)
Trainable params: 821114 (3.13 MB)
Non-trainable params: 1024 (4.00 KB)
_________________________________________________________________



Trial 984:
  Value: 0.7944
  num_layers: 4
  units_0: 480
  units_1: 256
  units_2: 512
  units_3: 288
  activation_0: relu
  activation_1: sigmoid
  activation_2: relu
  activation_3: sigmoid
  dropout_0: 0.2
  dropout_1: 0.2
  dropout_2: 0.1
  dropout_3: 0.0
  batch_norm_0: False
  batch_norm_1: False
  batch_norm_2: True
  batch_norm_3: True
  optimizer: adam
  learning_rate: 0.004095047858025288

Model: "sequential_984"
_________________________________________________________________
 Layer (type)                Output Shape              Param #   
=================================================================
 flatten_984 (Flatten)       (None, 784)               0         
                                                                 
 dense_4797 (Dense)          (None, 480)               376800    
                                                                 
 dropout_3813 (Dropout)      (None, 480)               0         
                                                                 
 dense_4798 (Dense)          (None, 256)               123136    
                                                                 
 dropout_3814 (Dropout)      (None, 256)               0         
                                                                 
 dense_4799 (Dense)          (None, 512)               131584    
                                                                 
 batch_normalization_1115 (  (None, 512)               2048      
 BatchNormalization)                                             
                                                                 
 dropout_3815 (Dropout)      (None, 512)               0         
                                                                 
 dense_4800 (Dense)          (None, 288)               147744    
                                                                 
 batch_normalization_1116 (  (None, 288)               1152      
 BatchNormalization)                                             
                                                                 
 dropout_3816 (Dropout)      (None, 288)               0         
                                                                 
 dense_4801 (Dense)          (None, 26)                7514      
                                                                 
=================================================================
Total params: 789978 (3.01 MB)
Trainable params: 788378 (3.01 MB)
Non-trainable params: 1600 (6.25 KB)
_________________________________________________________________



Trial 985:
  Value: 0.9191
  num_layers: 4
  units_0: 512
  units_1: 384
  units_2: 512
  units_3: 288
…
  units_0: 480
  units_1: 256
  units_2: 512
  units_3: 288
  activation_0: relu
  activation_1: sigmoid
  activation_2: relu
  activation_3: sigmoid
  dropout_0: 0.2
  dropout_1: 0.2
  dropout_2: 0.1
  dropout_3: 0.0
  batch_norm_0: False
  batch_norm_1: False
  batch_norm_2: True
  batch_norm_3: False
  optimizer: adam
  learning_rate: 0.0037791929561514586

Model: "sequential_986"
_________________________________________________________________
 Layer (type)                Output Shape              Param #   
=================================================================
 flatten_986 (Flatten)       (None, 784)               0         
                                                                 
 dense_4807 (Dense)          (None, 480)               376800    
                                                                 
 dropout_3821 (Dropout)      (None, 480)               0         
                                                                 
 dense_4808 (Dense)          (None, 256)               123136    
                                                                 
 dropout_3822 (Dropout)      (None, 256)               0         
                                                                 
 dense_4809 (Dense)          (None, 512)               131584    
                                                                 
 batch_normalization_1118 (  (None, 512)               2048      
 BatchNormalization)                                             
                                                                 
 dropout_3823 (Dropout)      (None, 512)               0         
                                                                 
 dense_4810 (Dense)          (None, 288)               147744    
                                                                 
 dropout_3824 (Dropout)      (None, 288)               0         
                                                                 
 dense_4811 (Dense)          (None, 26)                7514      
                                                                 
=================================================================
Total params: 788826 (3.01 MB)
Trainable params: 787802 (3.01 MB)
Non-trainable params: 1024 (4.00 KB)
_________________________________________________________________



Trial 987:
  Value: 0.9072
  num_layers: 4
  units_0: 512
  units_1: 416
  units_2: 512
  units_3: 288
…
  units_0: 448
  units_1: 256
  units_2: 512
  units_3: 96
  activation_0: relu
  activation_1: tanh
  activation_2: relu
  activation_3: sigmoid
  dropout_0: 0.2
  dropout_1: 0.2
  dropout_2: 0.1
  dropout_3: 0.0
  batch_norm_0: False
  batch_norm_1: False
  batch_norm_2: True
  batch_norm_3: False
  optimizer: adam
  learning_rate: 0.0030341461650343704

Model: "sequential_988"
_________________________________________________________________
 Layer (type)                Output Shape              Param #   
=================================================================
 flatten_988 (Flatten)       (None, 784)               0         
                                                                 
 dense_4817 (Dense)          (None, 448)               351680    
                                                                 
 dropout_3829 (Dropout)      (None, 448)               0         
                                                                 
 dense_4818 (Dense)          (None, 256)               114944    
                                                                 
 dropout_3830 (Dropout)      (None, 256)               0         
                                                                 
 dense_4819 (Dense)          (None, 512)               131584    
                                                                 
 batch_normalization_1120 (  (None, 512)               2048      
 BatchNormalization)                                             
                                                                 
 dropout_3831 (Dropout)      (None, 512)               0         
                                                                 
 dense_4820 (Dense)          (None, 96)                49248     
                                                                 
 dropout_3832 (Dropout)      (None, 96)                0         
                                                                 
 dense_4821 (Dense)          (None, 26)                2522      
                                                                 
=================================================================
Total params: 652026 (2.49 MB)
Trainable params: 651002 (2.48 MB)
Non-trainable params: 1024 (4.00 KB)
_________________________________________________________________



Trial 989:
  Value: 0.7410
  num_layers: 4
  units_0: 480
  units_1: 416
  units_2: 512
  units_3: 320
  activation_0: relu
  activation_1: sigmoid
  activation_2: relu
  activation_3: sigmoid
  dropout_0: 0.2
  dropout_1: 0.2
  dropout_2: 0.1
  dropout_3: 0.0
  batch_norm_0: False
  batch_norm_1: True
  batch_norm_2: True
  batch_norm_3: False
  optimizer: adam
  learning_rate: 0.004304425021822373

Model: "sequential_989"
_________________________________________________________________
 Layer (type)                Output Shape              Param #   
=================================================================
 flatten_989 (Flatten)       (None, 784)               0         
                                                                 
 dense_4822 (Dense)          (None, 480)               376800    
                                                                 
 dropout_3833 (Dropout)      (None, 480)               0         
                                                                 
 dense_4823 (Dense)          (None, 416)               200096    
                                                                 
 batch_normalization_1121 (  (None, 416)               1664      
 BatchNormalization)                                             
                                                                 
 dropout_3834 (Dropout)      (None, 416)               0         
                                                                 
 dense_4824 (Dense)          (None, 512)               213504    
                                                                 
 batch_normalization_1122 (  (None, 512)               2048      
 BatchNormalization)                                             
                                                                 
 dropout_3835 (Dropout)      (None, 512)               0         
                                                                 
 dense_4825 (Dense)          (None, 320)               164160    
                                                                 
 dropout_3836 (Dropout)      (None, 320)               0         
                                                                 
 dense_4826 (Dense)          (None, 26)                8346      
                                                                 
=================================================================
Total params: 966618 (3.69 MB)
Trainable params: 964762 (3.68 MB)
Non-trainable params: 1856 (7.25 KB)
_________________________________________________________________



Trial 990:
  Value: 0.0457
  num_layers: 4
  units_0: 512
  units_1: 416
  units_2: 512
  units_3: 288
…
  units_1: 256
  units_2: 512
  units_3: 320
  activation_0: relu
  activation_1: sigmoid
  activation_2: relu
  activation_3: sigmoid
  dropout_0: 0.2
  dropout_1: 0.2
  dropout_2: 0.1
  dropout_3: 0.0
  batch_norm_0: False
  batch_norm_1: False
  batch_norm_2: False
  batch_norm_3: False
  optimizer: rmsprop
  learning_rate: 0.0009550134187793086

Model: "sequential_991"
_________________________________________________________________
 Layer (type)                Output Shape              Param #   
=================================================================
 flatten_991 (Flatten)       (None, 784)               0         
                                                                 
 dense_4832 (Dense)          (None, 512)               401920    
                                                                 
 dropout_3841 (Dropout)      (None, 512)               0         
                                                                 
 dense_4833 (Dense)          (None, 256)               131328    
                                                                 
 dropout_3842 (Dropout)      (None, 256)               0         
                                                                 
 dense_4834 (Dense)          (None, 512)               131584    
                                                                 
 dropout_3843 (Dropout)      (None, 512)               0         
                                                                 
 dense_4835 (Dense)          (None, 320)               164160    
                                                                 
 dropout_3844 (Dropout)      (None, 320)               0         
                                                                 
 dense_4836 (Dense)          (None, 26)                8346      
                                                                 
=================================================================
Total params: 837338 (3.19 MB)
Trainable params: 837338 (3.19 MB)
Non-trainable params: 0 (0.00 Byte)
_________________________________________________________________



Trial 992:
  Value: 0.9200
  num_layers: 4
  units_0: 480
  units_1: 256
  units_2: 512
  units_3: 288
…
  units_0: 512
  units_1: 384
  units_2: 256
  units_3: 288
  activation_0: relu
  activation_1: sigmoid
  activation_2: relu
  activation_3: sigmoid
  dropout_0: 0.2
  dropout_1: 0.2
  dropout_2: 0.1
  dropout_3: 0.2
  batch_norm_0: False
  batch_norm_1: False
  batch_norm_2: True
  batch_norm_3: False
  optimizer: ftrl
  learning_rate: 0.0011052958750792513

Model: "sequential_995"
_________________________________________________________________
 Layer (type)                Output Shape              Param #   
=================================================================
 flatten_995 (Flatten)       (None, 784)               0         
                                                                 
 dense_4852 (Dense)          (None, 512)               401920    
                                                                 
 dropout_3857 (Dropout)      (None, 512)               0         
                                                                 
 dense_4853 (Dense)          (None, 384)               196992    
                                                                 
 dropout_3858 (Dropout)      (None, 384)               0         
                                                                 
 dense_4854 (Dense)          (None, 256)               98560     
                                                                 
 batch_normalization_1127 (  (None, 256)               1024      
 BatchNormalization)                                             
                                                                 
 dropout_3859 (Dropout)      (None, 256)               0         
                                                                 
 dense_4855 (Dense)          (None, 288)               74016     
                                                                 
 dropout_3860 (Dropout)      (None, 288)               0         
                                                                 
 dense_4856 (Dense)          (None, 26)                7514      
                                                                 
=================================================================
Total params: 780026 (2.98 MB)
Trainable params: 779514 (2.97 MB)
Non-trainable params: 512 (2.00 KB)
_________________________________________________________________



Trial 996:
  Value: 0.7211
  num_layers: 4
  units_0: 448
  units_1: 256
  units_2: 512
  units_3: 288
  activation_0: relu
  activation_1: sigmoid
  activation_2: sigmoid
  activation_3: sigmoid
  dropout_0: 0.2
  dropout_1: 0.2
  dropout_2: 0.5
  dropout_3: 0.0
  batch_norm_0: True
  batch_norm_1: False
  batch_norm_2: True
  batch_norm_3: False
  optimizer: adam
  learning_rate: 0.00717358272924863

Model: "sequential_996"
_________________________________________________________________
 Layer (type)                Output Shape              Param #   
=================================================================
 flatten_996 (Flatten)       (None, 784)               0         
                                                                 
 dense_4857 (Dense)          (None, 448)               351680    
                                                                 
 batch_normalization_1128 (  (None, 448)               1792      
 BatchNormalization)                                             
                                                                 
 dropout_3861 (Dropout)      (None, 448)               0         
                                                                 
 dense_4858 (Dense)          (None, 256)               114944    
                                                                 
 dropout_3862 (Dropout)      (None, 256)               0         
                                                                 
 dense_4859 (Dense)          (None, 512)               131584    
                                                                 
 batch_normalization_1129 (  (None, 512)               2048      
 BatchNormalization)                                             
                                                                 
 dropout_3863 (Dropout)      (None, 512)               0         
                                                                 
 dense_4860 (Dense)          (None, 288)               147744    
                                                                 
 dropout_3864 (Dropout)      (None, 288)               0         
                                                                 
 dense_4861 (Dense)          (None, 26)                7514      
                                                                 
=================================================================
Total params: 757306 (2.89 MB)
Trainable params: 755386 (2.88 MB)
Non-trainable params: 1920 (7.50 KB)
_________________________________________________________________



Trial 997:
  Value: 0.8641
  num_layers: 4
  units_0: 512
  units_1: 256
  units_2: 512
  units_3: 320
  activation_0: relu
  activation_1: sigmoid
  activation_2: relu
  activation_3: sigmoid
  dropout_0: 0.2
  dropout_1: 0.2
  dropout_2: 0.1
  dropout_3: 0.0
  batch_norm_0: False
  batch_norm_1: False
  batch_norm_2: True
  batch_norm_3: False
  optimizer: adam
  learning_rate: 0.005026548382531209

Model: "sequential_997"
_________________________________________________________________
 Layer (type)                Output Shape              Param #   
=================================================================
 flatten_997 (Flatten)       (None, 784)               0         
                                                                 
 dense_4862 (Dense)          (None, 512)               401920    
                                                                 
 dropout_3865 (Dropout)      (None, 512)               0         
                                                                 
 dense_4863 (Dense)          (None, 256)               131328    
                                                                 
 dropout_3866 (Dropout)      (None, 256)               0         
                                                                 
 dense_4864 (Dense)          (None, 512)               131584    
                                                                 
 batch_normalization_1130 (  (None, 512)               2048      
 BatchNormalization)                                             
                                                                 
 dropout_3867 (Dropout)      (None, 512)               0         
                                                                 
 dense_4865 (Dense)          (None, 320)               164160    
                                                                 
 dropout_3868 (Dropout)      (None, 320)               0         
                                                                 
 dense_4866 (Dense)          (None, 26)                8346      
                                                                 
=================================================================
Total params: 839386 (3.20 MB)
Trainable params: 838362 (3.20 MB)
Non-trainable params: 1024 (4.00 KB)
_________________________________________________________________



Trial 998:
  Value: 0.8019
  num_layers: 4
  units_0: 480
  units_1: 256
  units_2: 512
  units_3: 352
  activation_0: relu
  activation_1: sigmoid
  activation_2: relu
  activation_3: sigmoid
  dropout_0: 0.2
  dropout_1: 0.0
  dropout_2: 0.2
  dropout_3: 0.0
  batch_norm_0: False
  batch_norm_1: False
  batch_norm_2: True
  batch_norm_3: False
  optimizer: adam
  learning_rate: 0.0008657463435751672

Model: "sequential_998"
_________________________________________________________________
 Layer (type)                Output Shape              Param #   
=================================================================
 flatten_998 (Flatten)       (None, 784)               0         
                                                                 
 dense_4867 (Dense)          (None, 480)               376800    
                                                                 
 dropout_3869 (Dropout)      (None, 480)               0         
                                                                 
 dense_4868 (Dense)          (None, 256)               123136    
                                                                 
 dropout_3870 (Dropout)      (None, 256)               0         
                                                                 
 dense_4869 (Dense)          (None, 512)               131584    
                                                                 
 batch_normalization_1131 (  (None, 512)               2048      
 BatchNormalization)                                             
                                                                 
 dropout_3871 (Dropout)      (None, 512)               0         
                                                                 
 dense_4870 (Dense)          (None, 352)               180576    
                                                                 
 dropout_3872 (Dropout)      (None, 352)               0         
                                                                 
 dense_4871 (Dense)          (None, 26)                9178      
                                                                 
=================================================================
Total params: 823322 (3.14 MB)
Trainable params: 822298 (3.14 MB)
Non-trainable params: 1024 (4.00 KB)
_________________________________________________________________



Trial 999:
  Value: 0.7433
  num_layers: 4
  units_0: 512
  units_1: 224
  units_2: 512
  units_3: 288
  activation_0: sigmoid
  activation_1: sigmoid
  activation_2: relu
  activation_3: sigmoid
  dropout_0: 0.2
  dropout_1: 0.2
  dropout_2: 0.1
  dropout_3: 0.0
  batch_norm_0: False
  batch_norm_1: False
  batch_norm_2: True
  batch_norm_3: False
  optimizer: adam
  learning_rate: 0.0031270983510563767

Model: "sequential_999"
_________________________________________________________________
 Layer (type)                Output Shape              Param #   
=================================================================
 flatten_999 (Flatten)       (None, 784)               0         
                                                                 
 dense_4872 (Dense)          (None, 512)               401920    
                                                                 
 dropout_3873 (Dropout)      (None, 512)               0         
                                                                 
 dense_4873 (Dense)          (None, 224)               114912    
                                                                 
 dropout_3874 (Dropout)      (None, 224)               0         
                                                                 
 dense_4874 (Dense)          (None, 512)               115200    
                                                                 
 batch_normalization_1132 (  (None, 512)               2048      
 BatchNormalization)                                             
                                                                 
 dropout_3875 (Dropout)      (None, 512)               0         
                                                                 
 dense_4875 (Dense)          (None, 288)               147744    
                                                                 
 dropout_3876 (Dropout)      (None, 288)               0         
                                                                 
 dense_4876 (Dense)          (None, 26)                7514      
                                                                 
=================================================================
Total params: 789338 (3.01 MB)
Trainable params: 788314 (3.01 MB)
Non-trainable params: 1024 (4.00 KB)
_________________________________________________________________


